…
I0927 18:43:44.520931 18437 net.cpp:294] The NetState phase (0) differed from the phase (1) specified by a rule in layer mnist
I0927 18:43:44.520951 18437 net.cpp:294] The NetState phase (0) differed from the phase (1) specified by a rule in layer accuracy
I0927 18:43:44.521077 18437 net.cpp:51] Initializing net from parameters: 
name: "LeNet"
state {
  phase: TRAIN
  level: 0
  stage: ""
}
layer {
  name: "script"
  type: "Data"
  top: "data"
  top: "label"
  include {
    phase: TRAIN
  }
  transform_param {
    scale: 0.00390625
  }
  data_param {
    source: "dummy/data/digits/dummy_train_lmdb"
    batch_size: 64
    backend: LMDB
  }
}
layer {
  name: "conv1"
  type: "Convolution"
  bottom: "data"
  top: "conv1"
  param {
    lr_mult: 1
  }
  param {
    lr_mult: 2
  }
  convolution_param {
    num_output: 20
    kernel_size: 5
    stride: 1
    weight_filler {
      type: "xavier"
    }
    bias_filler {
      type: "constant"
    }
  }
}
layer {
  name: "relu1"
  type: "ReLU"
  bottom: "conv1"
  top: "conv1"
}
layer {
  name: "pool1"
  type: "Pooling"
  bottom: "conv1"
  top: "pool1"
  pooling_param {
    pool: MAX
    kernel_size: 2
    stride: 2
  }
}
layer {
  name: "conv2"
  type: "Convolution"
  bottom: "pool1"
  top: "conv2"
  param {
    lr_mult: 1
  }
  param {
    lr_mult: 2
  }
  convolution_param {
    num_output: 50
    kernel_size: 5
    stride: 1
    weight_filler {
      type: "xavier"
    }
    bias_filler {
      type: "constant"
    }
  }
}
layer {
  name: "relu2"
  type: "ReLU"
  bottom: "conv2"
  top: "conv2"
}
layer {
  name: "pool2"
  type: "Pooling"
  bottom: "conv2"
  top: "pool2"
  pooling_param {
    pool: MAX
    kernel_size: 2
    stride: 2
  }
}
layer {
  name: "conv3"
  type: "Convolution"
  bottom: "pool2"
  top: "conv3"
  param {
    lr_mult: 1
  }
  param {
    lr_mult: 2
  }
  convolution_param {
    num_output: 120
    kernel_size: 1
    stride: 1
    weight_filler {
      type: "xavier"
    }
    bias_filler {
      type: "constant"
    }
  }
}
layer {
  name: "ip1"
  type: "InnerProduct"
  bottom: "conv3"
  top: "ip1"
  param {
    lr_mult: 1
  }
  param {
    lr_mult: 2
  }
  inner_product_param {
    num_output: 84
    weight_filler {
      type: "xavier"
    }
    bias_filler {
      type: "constant"
    }
  }
}
layer {
  name: "relu1"
  type: "ReLU"
  bottom: "ip1"
  top: "ip1"
}
layer {
  name: "ip2"
  type: "InnerProduct"
  bottom: "ip1"
  top: "ip2"
  param {
    lr_mult: 1
  }
  param {
    lr_mult: 2
  }
  inner_product_param {
    num_output: 10
    weight_filler {
      type: "xavier"
    }
    bias_filler {
      type: "constant"
    }
  }
}
layer {
  name: "loss"
  type: "SoftmaxWithLoss"
  bottom: "ip2"
  bottom: "label"
  top: "loss"
}
I0927 18:43:44.521147 18437 layer_factory.hpp:77] Creating layer script
I0927 18:43:44.521539 18437 db_lmdb.cpp:35] Opened lmdb dummy/data/digits/dummy_train_lmdb
I0927 18:43:44.521569 18437 net.cpp:84] Creating Layer script
I0927 18:43:44.521580 18437 net.cpp:380] script -> data
I0927 18:43:44.521602 18437 net.cpp:380] script -> label
I0927 18:43:44.521730 18437 data_layer.cpp:45] output data size: 64,1,32,32
I0927 18:43:44.522208 18437 net.cpp:122] Setting up script
I0927 18:43:44.522220 18437 net.cpp:129] Top shape: 64 1 32 32 (65536)
I0927 18:43:44.522228 18437 net.cpp:129] Top shape: 64 (64)
I0927 18:43:44.522231 18437 net.cpp:137] Memory required for data: 262400
I0927 18:43:44.522239 18437 layer_factory.hpp:77] Creating layer conv1
I0927 18:43:44.522255 18437 net.cpp:84] Creating Layer conv1
I0927 18:43:44.522274 18437 net.cpp:406] conv1 <- data
I0927 18:43:44.522286 18437 net.cpp:380] conv1 -> conv1
I0927 18:43:44.522339 18437 net.cpp:122] Setting up conv1
I0927 18:43:44.522347 18437 net.cpp:129] Top shape: 64 20 28 28 (1003520)
I0927 18:43:44.522352 18437 net.cpp:137] Memory required for data: 4276480
I0927 18:43:44.522370 18437 layer_factory.hpp:77] Creating layer relu1
I0927 18:43:44.522378 18437 net.cpp:84] Creating Layer relu1
I0927 18:43:44.522383 18437 net.cpp:406] relu1 <- conv1
I0927 18:43:44.522389 18437 net.cpp:367] relu1 -> conv1 (in-place)
I0927 18:43:44.522398 18437 net.cpp:122] Setting up relu1
I0927 18:43:44.522404 18437 net.cpp:129] Top shape: 64 20 28 28 (1003520)
I0927 18:43:44.522408 18437 net.cpp:137] Memory required for data: 8290560
I0927 18:43:44.522413 18437 layer_factory.hpp:77] Creating layer pool1
I0927 18:43:44.522419 18437 net.cpp:84] Creating Layer pool1
I0927 18:43:44.522423 18437 net.cpp:406] pool1 <- conv1
I0927 18:43:44.522429 18437 net.cpp:380] pool1 -> pool1
I0927 18:43:44.522449 18437 net.cpp:122] Setting up pool1
I0927 18:43:44.522455 18437 net.cpp:129] Top shape: 64 20 14 14 (250880)
I0927 18:43:44.522460 18437 net.cpp:137] Memory required for data: 9294080
I0927 18:43:44.522464 18437 layer_factory.hpp:77] Creating layer conv2
I0927 18:43:44.522475 18437 net.cpp:84] Creating Layer conv2
I0927 18:43:44.522478 18437 net.cpp:406] conv2 <- pool1
I0927 18:43:44.522486 18437 net.cpp:380] conv2 -> conv2
I0927 18:43:44.522764 18437 net.cpp:122] Setting up conv2
I0927 18:43:44.522773 18437 net.cpp:129] Top shape: 64 50 10 10 (320000)
I0927 18:43:44.522778 18437 net.cpp:137] Memory required for data: 10574080
I0927 18:43:44.522788 18437 layer_factory.hpp:77] Creating layer relu2
I0927 18:43:44.522794 18437 net.cpp:84] Creating Layer relu2
I0927 18:43:44.522799 18437 net.cpp:406] relu2 <- conv2
I0927 18:43:44.522805 18437 net.cpp:367] relu2 -> conv2 (in-place)
I0927 18:43:44.522811 18437 net.cpp:122] Setting up relu2
I0927 18:43:44.522817 18437 net.cpp:129] Top shape: 64 50 10 10 (320000)
I0927 18:43:44.522822 18437 net.cpp:137] Memory required for data: 11854080
I0927 18:43:44.522826 18437 layer_factory.hpp:77] Creating layer pool2
I0927 18:43:44.522832 18437 net.cpp:84] Creating Layer pool2
I0927 18:43:44.522836 18437 net.cpp:406] pool2 <- conv2
I0927 18:43:44.522842 18437 net.cpp:380] pool2 -> pool2
I0927 18:43:44.522852 18437 net.cpp:122] Setting up pool2
I0927 18:43:44.522858 18437 net.cpp:129] Top shape: 64 50 5 5 (80000)
I0927 18:43:44.522862 18437 net.cpp:137] Memory required for data: 12174080
I0927 18:43:44.522866 18437 layer_factory.hpp:77] Creating layer conv3
I0927 18:43:44.522876 18437 net.cpp:84] Creating Layer conv3
I0927 18:43:44.522879 18437 net.cpp:406] conv3 <- pool2
I0927 18:43:44.522886 18437 net.cpp:380] conv3 -> conv3
I0927 18:43:44.522974 18437 net.cpp:122] Setting up conv3
I0927 18:43:44.522986 18437 net.cpp:129] Top shape: 64 120 5 5 (192000)
I0927 18:43:44.522990 18437 net.cpp:137] Memory required for data: 12942080
I0927 18:43:44.523000 18437 layer_factory.hpp:77] Creating layer ip1
I0927 18:43:44.523010 18437 net.cpp:84] Creating Layer ip1
I0927 18:43:44.523015 18437 net.cpp:406] ip1 <- conv3
I0927 18:43:44.523021 18437 net.cpp:380] ip1 -> ip1
I0927 18:43:44.525563 18437 net.cpp:122] Setting up ip1
I0927 18:43:44.525573 18437 net.cpp:129] Top shape: 64 84 (5376)
I0927 18:43:44.525578 18437 net.cpp:137] Memory required for data: 12963584
I0927 18:43:44.525586 18437 layer_factory.hpp:77] Creating layer relu1
I0927 18:43:44.525593 18437 net.cpp:84] Creating Layer relu1
I0927 18:43:44.525598 18437 net.cpp:406] relu1 <- ip1
I0927 18:43:44.525604 18437 net.cpp:367] relu1 -> ip1 (in-place)
I0927 18:43:44.525610 18437 net.cpp:122] Setting up relu1
I0927 18:43:44.525616 18437 net.cpp:129] Top shape: 64 84 (5376)
I0927 18:43:44.525620 18437 net.cpp:137] Memory required for data: 12985088
I0927 18:43:44.525624 18437 layer_factory.hpp:77] Creating layer ip2
I0927 18:43:44.525630 18437 net.cpp:84] Creating Layer ip2
I0927 18:43:44.525635 18437 net.cpp:406] ip2 <- ip1
I0927 18:43:44.525655 18437 net.cpp:380] ip2 -> ip2
I0927 18:43:44.525679 18437 net.cpp:122] Setting up ip2
I0927 18:43:44.525686 18437 net.cpp:129] Top shape: 64 10 (640)
I0927 18:43:44.525691 18437 net.cpp:137] Memory required for data: 12987648
I0927 18:43:44.525701 18437 layer_factory.hpp:77] Creating layer loss
I0927 18:43:44.525707 18437 net.cpp:84] Creating Layer loss
I0927 18:43:44.525712 18437 net.cpp:406] loss <- ip2
I0927 18:43:44.525717 18437 net.cpp:406] loss <- label
I0927 18:43:44.525724 18437 net.cpp:380] loss -> loss
I0927 18:43:44.525737 18437 layer_factory.hpp:77] Creating layer loss
…
I0927 18:43:44.526315 18437 solver.cpp:172] Creating test net (#0) specified by net file: dummy/jackson/models/config3/lenet_train_val.prototxt
I0927 18:43:44.526402 18437 net.cpp:294] The NetState phase (1) differed from the phase (0) specified by a rule in layer script
I0927 18:43:44.526597 18437 net.cpp:51] Initializing net from parameters: 
name: "LeNet"
state {
  phase: TEST
}
layer {
  name: "mnist"
  type: "Data"
  top: "data"
  top: "label"
  include {
    phase: TEST
  }
  transform_param {
    scale: 0.00390625
  }
  data_param {
    source: "dummy/data/digits/dummy_val_lmdb"
    batch_size: 64
    backend: LMDB
  }
}
layer {
  name: "conv1"
  type: "Convolution"
  bottom: "data"
  top: "conv1"
  param {
    lr_mult: 1
  }
  param {
    lr_mult: 2
  }
  convolution_param {
    num_output: 20
    kernel_size: 5
    stride: 1
    weight_filler {
      type: "xavier"
    }
    bias_filler {
      type: "constant"
    }
  }
}
layer {
  name: "relu1"
  type: "ReLU"
  bottom: "conv1"
  top: "conv1"
}
layer {
  name: "pool1"
  type: "Pooling"
  bottom: "conv1"
  top: "pool1"
  pooling_param {
    pool: MAX
    kernel_size: 2
    stride: 2
  }
}
layer {
  name: "conv2"
  type: "Convolution"
  bottom: "pool1"
  top: "conv2"
  param {
    lr_mult: 1
  }
  param {
    lr_mult: 2
  }
  convolution_param {
    num_output: 50
    kernel_size: 5
    stride: 1
    weight_filler {
      type: "xavier"
    }
    bias_filler {
      type: "constant"
    }
  }
}
layer {
  name: "relu2"
  type: "ReLU"
  bottom: "conv2"
  top: "conv2"
}
layer {
  name: "pool2"
  type: "Pooling"
  bottom: "conv2"
  top: "pool2"
  pooling_param {
    pool: MAX
    kernel_size: 2
    stride: 2
  }
}
layer {
  name: "conv3"
  type: "Convolution"
  bottom: "pool2"
  top: "conv3"
  param {
    lr_mult: 1
  }
  param {
    lr_mult: 2
  }
  convolution_param {
    num_output: 120
    kernel_size: 1
    stride: 1
    weight_filler {
      type: "xavier"
    }
    bias_filler {
      type: "constant"
    }
  }
}
layer {
  name: "ip1"
  type: "InnerProduct"
  bottom: "conv3"
  top: "ip1"
  param {
    lr_mult: 1
  }
  param {
    lr_mult: 2
  }
  inner_product_param {
    num_output: 84
    weight_filler {
      type: "xavier"
    }
    bias_filler {
      type: "constant"
    }
  }
}
layer {
  name: "relu1"
  type: "ReLU"
  bottom: "ip1"
  top: "ip1"
}
layer {
  name: "ip2"
  type: "InnerProduct"
  bottom: "ip1"
  top: "ip2"
  param {
    lr_mult: 1
  }
  param {
    lr_mult: 2
  }
  inner_product_param {
    num_output: 10
    weight_filler {
      type: "xavier"
    }
    bias_filler {
      type: "constant"
    }
  }
}
layer {
  name: "accuracy"
  type: "Accuracy"
  bottom: "ip2"
  bottom: "label"
  top: "accuracy"
  include {
    phase: TEST
  }
}
layer {
  name: "loss"
  type: "SoftmaxWithLoss"
  bottom: "ip2"
  bottom: "label"
  top: "loss"
}
I0927 18:43:44.526906 18437 layer_factory.hpp:77] Creating layer mnist
I0927 18:43:44.527084 18437 db_lmdb.cpp:35] Opened lmdb dummy/data/digits/dummy_val_lmdb
I0927 18:43:44.527154 18437 net.cpp:84] Creating Layer mnist
I0927 18:43:44.527218 18437 net.cpp:380] mnist -> data
I0927 18:43:44.527282 18437 net.cpp:380] mnist -> label
I0927 18:43:44.527405 18437 data_layer.cpp:45] output data size: 64,1,32,32
I0927 18:43:44.527503 18437 net.cpp:122] Setting up mnist
I0927 18:43:44.527566 18437 net.cpp:129] Top shape: 64 1 32 32 (65536)
I0927 18:43:44.527624 18437 net.cpp:129] Top shape: 64 (64)
I0927 18:43:44.527679 18437 net.cpp:137] Memory required for data: 262400
I0927 18:43:44.527735 18437 layer_factory.hpp:77] Creating layer label_mnist_1_split
I0927 18:43:44.527796 18437 net.cpp:84] Creating Layer label_mnist_1_split
I0927 18:43:44.527853 18437 net.cpp:406] label_mnist_1_split <- label
I0927 18:43:44.527914 18437 net.cpp:380] label_mnist_1_split -> label_mnist_1_split_0
I0927 18:43:44.527978 18437 net.cpp:380] label_mnist_1_split -> label_mnist_1_split_1
I0927 18:43:44.528043 18437 net.cpp:122] Setting up label_mnist_1_split
I0927 18:43:44.528102 18437 net.cpp:129] Top shape: 64 (64)
I0927 18:43:44.528159 18437 net.cpp:129] Top shape: 64 (64)
I0927 18:43:44.528214 18437 net.cpp:137] Memory required for data: 262912
I0927 18:43:44.528270 18437 layer_factory.hpp:77] Creating layer conv1
I0927 18:43:44.528334 18437 net.cpp:84] Creating Layer conv1
I0927 18:43:44.528393 18437 net.cpp:406] conv1 <- data
I0927 18:43:44.528453 18437 net.cpp:380] conv1 -> conv1
I0927 18:43:44.528540 18437 net.cpp:122] Setting up conv1
I0927 18:43:44.528604 18437 net.cpp:129] Top shape: 64 20 28 28 (1003520)
I0927 18:43:44.528658 18437 net.cpp:137] Memory required for data: 4276992
I0927 18:43:44.528723 18437 layer_factory.hpp:77] Creating layer relu1
I0927 18:43:44.528781 18437 net.cpp:84] Creating Layer relu1
I0927 18:43:44.528837 18437 net.cpp:406] relu1 <- conv1
I0927 18:43:44.528897 18437 net.cpp:367] relu1 -> conv1 (in-place)
I0927 18:43:44.528956 18437 net.cpp:122] Setting up relu1
I0927 18:43:44.529016 18437 net.cpp:129] Top shape: 64 20 28 28 (1003520)
I0927 18:43:44.529069 18437 net.cpp:137] Memory required for data: 8291072
I0927 18:43:44.529124 18437 layer_factory.hpp:77] Creating layer pool1
I0927 18:43:44.529184 18437 net.cpp:84] Creating Layer pool1
I0927 18:43:44.529242 18437 net.cpp:406] pool1 <- conv1
I0927 18:43:44.529300 18437 net.cpp:380] pool1 -> pool1
I0927 18:43:44.529363 18437 net.cpp:122] Setting up pool1
I0927 18:43:44.529428 18437 net.cpp:129] Top shape: 64 20 14 14 (250880)
I0927 18:43:44.529485 18437 net.cpp:137] Memory required for data: 9294592
I0927 18:43:44.529541 18437 layer_factory.hpp:77] Creating layer conv2
I0927 18:43:44.529605 18437 net.cpp:84] Creating Layer conv2
I0927 18:43:44.529661 18437 net.cpp:406] conv2 <- pool1
I0927 18:43:44.529722 18437 net.cpp:380] conv2 -> conv2
I0927 18:43:44.530050 18437 net.cpp:122] Setting up conv2
I0927 18:43:44.530112 18437 net.cpp:129] Top shape: 64 50 10 10 (320000)
I0927 18:43:44.530167 18437 net.cpp:137] Memory required for data: 10574592
I0927 18:43:44.530233 18437 layer_factory.hpp:77] Creating layer relu2
I0927 18:43:44.530292 18437 net.cpp:84] Creating Layer relu2
I0927 18:43:44.530347 18437 net.cpp:406] relu2 <- conv2
I0927 18:43:44.530405 18437 net.cpp:367] relu2 -> conv2 (in-place)
I0927 18:43:44.530489 18437 net.cpp:122] Setting up relu2
I0927 18:43:44.530550 18437 net.cpp:129] Top shape: 64 50 10 10 (320000)
I0927 18:43:44.530606 18437 net.cpp:137] Memory required for data: 11854592
I0927 18:43:44.530661 18437 layer_factory.hpp:77] Creating layer pool2
I0927 18:43:44.530722 18437 net.cpp:84] Creating Layer pool2
I0927 18:43:44.530779 18437 net.cpp:406] pool2 <- conv2
I0927 18:43:44.530838 18437 net.cpp:380] pool2 -> pool2
I0927 18:43:44.530902 18437 net.cpp:122] Setting up pool2
I0927 18:43:44.530962 18437 net.cpp:129] Top shape: 64 50 5 5 (80000)
I0927 18:43:44.531018 18437 net.cpp:137] Memory required for data: 12174592
I0927 18:43:44.531074 18437 layer_factory.hpp:77] Creating layer conv3
I0927 18:43:44.531141 18437 net.cpp:84] Creating Layer conv3
I0927 18:43:44.531198 18437 net.cpp:406] conv3 <- pool2
I0927 18:43:44.531260 18437 net.cpp:380] conv3 -> conv3
I0927 18:43:44.531401 18437 net.cpp:122] Setting up conv3
I0927 18:43:44.531463 18437 net.cpp:129] Top shape: 64 120 5 5 (192000)
I0927 18:43:44.531518 18437 net.cpp:137] Memory required for data: 12942592
I0927 18:43:44.531581 18437 layer_factory.hpp:77] Creating layer ip1
I0927 18:43:44.531641 18437 net.cpp:84] Creating Layer ip1
I0927 18:43:44.531697 18437 net.cpp:406] ip1 <- conv3
I0927 18:43:44.531760 18437 net.cpp:380] ip1 -> ip1
I0927 18:43:44.534359 18437 net.cpp:122] Setting up ip1
I0927 18:43:44.534425 18437 net.cpp:129] Top shape: 64 84 (5376)
I0927 18:43:44.534481 18437 net.cpp:137] Memory required for data: 12964096
I0927 18:43:44.534543 18437 layer_factory.hpp:77] Creating layer relu1
I0927 18:43:44.534600 18437 net.cpp:84] Creating Layer relu1
I0927 18:43:44.534657 18437 net.cpp:406] relu1 <- ip1
I0927 18:43:44.534718 18437 net.cpp:367] relu1 -> ip1 (in-place)
I0927 18:43:44.534778 18437 net.cpp:122] Setting up relu1
I0927 18:43:44.534837 18437 net.cpp:129] Top shape: 64 84 (5376)
I0927 18:43:44.534891 18437 net.cpp:137] Memory required for data: 12985600
I0927 18:43:44.534947 18437 layer_factory.hpp:77] Creating layer ip2
I0927 18:43:44.535006 18437 net.cpp:84] Creating Layer ip2
I0927 18:43:44.535063 18437 net.cpp:406] ip2 <- ip1
I0927 18:43:44.535125 18437 net.cpp:380] ip2 -> ip2
I0927 18:43:44.535207 18437 net.cpp:122] Setting up ip2
I0927 18:43:44.535269 18437 net.cpp:129] Top shape: 64 10 (640)
I0927 18:43:44.535323 18437 net.cpp:137] Memory required for data: 12988160
I0927 18:43:44.535387 18437 layer_factory.hpp:77] Creating layer ip2_ip2_0_split
I0927 18:43:44.535447 18437 net.cpp:84] Creating Layer ip2_ip2_0_split
I0927 18:43:44.535503 18437 net.cpp:406] ip2_ip2_0_split <- ip2
I0927 18:43:44.535562 18437 net.cpp:380] ip2_ip2_0_split -> ip2_ip2_0_split_0
I0927 18:43:44.535625 18437 net.cpp:380] ip2_ip2_0_split -> ip2_ip2_0_split_1
I0927 18:43:44.535691 18437 net.cpp:122] Setting up ip2_ip2_0_split
I0927 18:43:44.535750 18437 net.cpp:129] Top shape: 64 10 (640)
I0927 18:43:44.535809 18437 net.cpp:129] Top shape: 64 10 (640)
I0927 18:43:44.535862 18437 net.cpp:137] Memory required for data: 12993280
I0927 18:43:44.535918 18437 layer_factory.hpp:77] Creating layer accuracy
I0927 18:43:44.535981 18437 net.cpp:84] Creating Layer accuracy
I0927 18:43:44.536039 18437 net.cpp:406] accuracy <- ip2_ip2_0_split_0
I0927 18:43:44.536098 18437 net.cpp:406] accuracy <- label_mnist_1_split_0
I0927 18:43:44.536164 18437 net.cpp:380] accuracy -> accuracy
…
