…
I0927 17:43:03.842725 15810 net.cpp:294] The NetState phase (0) differed from the phase (1) specified by a rule in layer mnist
I0927 17:43:03.842743 15810 net.cpp:294] The NetState phase (0) differed from the phase (1) specified by a rule in layer accuracy
I0927 17:43:03.842844 15810 net.cpp:51] Initializing net from parameters: 
name: "LeNet"
state {
  phase: TRAIN
  level: 0
  stage: ""
}
layer {
  name: "script"
  type: "Data"
  top: "data"
  top: "label"
  include {
    phase: TRAIN
  }
  transform_param {
    scale: 0.00390625
  }
  data_param {
    source: "dummy/data/digits/dummy_train_lmdb"
    batch_size: 64
    backend: LMDB
  }
}
layer {
  name: "conv1"
  type: "Convolution"
  bottom: "data"
  top: "conv1"
  param {
    lr_mult: 1
  }
  param {
    lr_mult: 2
  }
  convolution_param {
    num_output: 20
    kernel_size: 5
    stride: 1
    weight_filler {
      type: "xavier"
    }
    bias_filler {
      type: "constant"
    }
  }
}
layer {
  name: "pool1"
  type: "Pooling"
  bottom: "conv1"
  top: "pool1"
  pooling_param {
    pool: MAX
    kernel_size: 2
    stride: 2
  }
}
layer {
  name: "conv2"
  type: "Convolution"
  bottom: "pool1"
  top: "conv2"
  param {
    lr_mult: 1
  }
  param {
    lr_mult: 2
  }
  convolution_param {
    num_output: 50
    kernel_size: 5
    stride: 1
    weight_filler {
      type: "xavier"
    }
    bias_filler {
      type: "constant"
    }
  }
}
layer {
  name: "pool2"
  type: "Pooling"
  bottom: "conv2"
  top: "pool2"
  pooling_param {
    pool: MAX
    kernel_size: 2
    stride: 2
  }
}
layer {
  name: "conv3"
  type: "Convolution"
  bottom: "pool2"
  top: "conv3"
  param {
    lr_mult: 1
  }
  param {
    lr_mult: 2
  }
  convolution_param {
    num_output: 120
    kernel_size: 1
    stride: 1
    weight_filler {
      type: "xavier"
    }
    bias_filler {
      type: "constant"
    }
  }
}
layer {
  name: "ip1"
  type: "InnerProduct"
  bottom: "conv3"
  top: "ip1"
  param {
    lr_mult: 1
  }
  param {
    lr_mult: 2
  }
  inner_product_param {
    num_output: 84
    weight_filler {
      type: "xavier"
    }
    bias_filler {
      type: "constant"
    }
  }
}
layer {
  name: "relu1"
  type: "ReLU"
  bottom: "ip1"
  top: "ip1"
}
layer {
  name: "ip2"
  type: "InnerProduct"
  bottom: "ip1"
  top: "ip2"
  param {
    lr_mult: 1
  }
  param {
    lr_mult: 2
  }
  inner_product_param {
    num_output: 10
    weight_filler {
      type: "xavier"
    }
    bias_filler {
      type: "constant"
    }
  }
}
layer {
  name: "loss"
  type: "SoftmaxWithLoss"
  bottom: "ip2"
  bottom: "label"
  top: "loss"
}
I0927 17:43:03.842921 15810 layer_factory.hpp:77] Creating layer script
I0927 17:43:03.843169 15810 db_lmdb.cpp:35] Opened lmdb dummy/data/digits/dummy_train_lmdb
I0927 17:43:03.843199 15810 net.cpp:84] Creating Layer script
I0927 17:43:03.843209 15810 net.cpp:380] script -> data
I0927 17:43:03.843230 15810 net.cpp:380] script -> label
I0927 17:43:03.843349 15810 data_layer.cpp:45] output data size: 64,1,32,32
I0927 17:43:03.843688 15810 net.cpp:122] Setting up script
I0927 17:43:03.843703 15810 net.cpp:129] Top shape: 64 1 32 32 (65536)
I0927 17:43:03.843710 15810 net.cpp:129] Top shape: 64 (64)
I0927 17:43:03.843714 15810 net.cpp:137] Memory required for data: 262400
I0927 17:43:03.843724 15810 layer_factory.hpp:77] Creating layer conv1
I0927 17:43:03.843737 15810 net.cpp:84] Creating Layer conv1
I0927 17:43:03.843745 15810 net.cpp:406] conv1 <- data
I0927 17:43:03.843760 15810 net.cpp:380] conv1 -> conv1
I0927 17:43:03.843816 15810 net.cpp:122] Setting up conv1
I0927 17:43:03.843835 15810 net.cpp:129] Top shape: 64 20 28 28 (1003520)
I0927 17:43:03.843840 15810 net.cpp:137] Memory required for data: 4276480
I0927 17:43:03.843854 15810 layer_factory.hpp:77] Creating layer pool1
I0927 17:43:03.843863 15810 net.cpp:84] Creating Layer pool1
I0927 17:43:03.843868 15810 net.cpp:406] pool1 <- conv1
I0927 17:43:03.843878 15810 net.cpp:380] pool1 -> pool1
I0927 17:43:03.843895 15810 net.cpp:122] Setting up pool1
I0927 17:43:03.843904 15810 net.cpp:129] Top shape: 64 20 14 14 (250880)
I0927 17:43:03.843909 15810 net.cpp:137] Memory required for data: 5280000
I0927 17:43:03.843912 15810 layer_factory.hpp:77] Creating layer conv2
I0927 17:43:03.843919 15810 net.cpp:84] Creating Layer conv2
I0927 17:43:03.843924 15810 net.cpp:406] conv2 <- pool1
I0927 17:43:03.843935 15810 net.cpp:380] conv2 -> conv2
I0927 17:43:03.844135 15810 net.cpp:122] Setting up conv2
I0927 17:43:03.844146 15810 net.cpp:129] Top shape: 64 50 10 10 (320000)
I0927 17:43:03.844152 15810 net.cpp:137] Memory required for data: 6560000
I0927 17:43:03.844163 15810 layer_factory.hpp:77] Creating layer pool2
I0927 17:43:03.844172 15810 net.cpp:84] Creating Layer pool2
I0927 17:43:03.844177 15810 net.cpp:406] pool2 <- conv2
I0927 17:43:03.844182 15810 net.cpp:380] pool2 -> pool2
I0927 17:43:03.844192 15810 net.cpp:122] Setting up pool2
I0927 17:43:03.844200 15810 net.cpp:129] Top shape: 64 50 5 5 (80000)
I0927 17:43:03.844207 15810 net.cpp:137] Memory required for data: 6880000
I0927 17:43:03.844211 15810 layer_factory.hpp:77] Creating layer conv3
I0927 17:43:03.844223 15810 net.cpp:84] Creating Layer conv3
I0927 17:43:03.844228 15810 net.cpp:406] conv3 <- pool2
I0927 17:43:03.844235 15810 net.cpp:380] conv3 -> conv3
I0927 17:43:03.844318 15810 net.cpp:122] Setting up conv3
I0927 17:43:03.844334 15810 net.cpp:129] Top shape: 64 120 5 5 (192000)
I0927 17:43:03.844341 15810 net.cpp:137] Memory required for data: 7648000
I0927 17:43:03.844352 15810 layer_factory.hpp:77] Creating layer ip1
I0927 17:43:03.844359 15810 net.cpp:84] Creating Layer ip1
I0927 17:43:03.844362 15810 net.cpp:406] ip1 <- conv3
I0927 17:43:03.844369 15810 net.cpp:380] ip1 -> ip1
I0927 17:43:03.845923 15810 net.cpp:122] Setting up ip1
I0927 17:43:03.845934 15810 net.cpp:129] Top shape: 64 84 (5376)
I0927 17:43:03.845939 15810 net.cpp:137] Memory required for data: 7669504
I0927 17:43:03.845950 15810 layer_factory.hpp:77] Creating layer relu1
I0927 17:43:03.845957 15810 net.cpp:84] Creating Layer relu1
I0927 17:43:03.845963 15810 net.cpp:406] relu1 <- ip1
I0927 17:43:03.845968 15810 net.cpp:367] relu1 -> ip1 (in-place)
I0927 17:43:03.845975 15810 net.cpp:122] Setting up relu1
I0927 17:43:03.845983 15810 net.cpp:129] Top shape: 64 84 (5376)
I0927 17:43:03.845988 15810 net.cpp:137] Memory required for data: 7691008
I0927 17:43:03.845993 15810 layer_factory.hpp:77] Creating layer ip2
I0927 17:43:03.846004 15810 net.cpp:84] Creating Layer ip2
I0927 17:43:03.846010 15810 net.cpp:406] ip2 <- ip1
I0927 17:43:03.846019 15810 net.cpp:380] ip2 -> ip2
I0927 17:43:03.846040 15810 net.cpp:122] Setting up ip2
I0927 17:43:03.846050 15810 net.cpp:129] Top shape: 64 10 (640)
I0927 17:43:03.846055 15810 net.cpp:137] Memory required for data: 7693568
I0927 17:43:03.846066 15810 layer_factory.hpp:77] Creating layer loss
I0927 17:43:03.846076 15810 net.cpp:84] Creating Layer loss
I0927 17:43:03.846081 15810 net.cpp:406] loss <- ip2
I0927 17:43:03.846087 15810 net.cpp:406] loss <- label
I0927 17:43:03.846096 15810 net.cpp:380] loss -> loss
I0927 17:43:03.846108 15810 layer_factory.hpp:77] Creating layer loss
…
I0927 17:43:03.846438 15810 solver.cpp:172] Creating test net (#0) specified by net file: dummy/jackson/models/config2/lenet_train_val.prototxt
I0927 17:43:03.846468 15810 net.cpp:294] The NetState phase (1) differed from the phase (0) specified by a rule in layer script
I0927 17:43:03.846565 15810 net.cpp:51] Initializing net from parameters: 
name: "LeNet"
state {
  phase: TEST
}
layer {
  name: "mnist"
  type: "Data"
  top: "data"
  top: "label"
  include {
    phase: TEST
  }
  transform_param {
    scale: 0.00390625
  }
  data_param {
    source: "dummy/data/digits/dummy_val_lmdb"
    batch_size: 64
    backend: LMDB
  }
}
layer {
  name: "conv1"
  type: "Convolution"
  bottom: "data"
  top: "conv1"
  param {
    lr_mult: 1
  }
  param {
    lr_mult: 2
  }
  convolution_param {
    num_output: 20
    kernel_size: 5
    stride: 1
    weight_filler {
      type: "xavier"
    }
    bias_filler {
      type: "constant"
    }
  }
}
layer {
  name: "pool1"
  type: "Pooling"
  bottom: "conv1"
  top: "pool1"
  pooling_param {
    pool: MAX
    kernel_size: 2
    stride: 2
  }
}
layer {
  name: "conv2"
  type: "Convolution"
  bottom: "pool1"
  top: "conv2"
  param {
    lr_mult: 1
  }
  param {
    lr_mult: 2
  }
  convolution_param {
    num_output: 50
    kernel_size: 5
    stride: 1
    weight_filler {
      type: "xavier"
    }
    bias_filler {
      type: "constant"
    }
  }
}
layer {
  name: "pool2"
  type: "Pooling"
  bottom: "conv2"
  top: "pool2"
  pooling_param {
    pool: MAX
    kernel_size: 2
    stride: 2
  }
}
layer {
  name: "conv3"
  type: "Convolution"
  bottom: "pool2"
  top: "conv3"
  param {
    lr_mult: 1
  }
  param {
    lr_mult: 2
  }
  convolution_param {
    num_output: 120
    kernel_size: 1
    stride: 1
    weight_filler {
      type: "xavier"
    }
    bias_filler {
      type: "constant"
    }
  }
}
layer {
  name: "ip1"
  type: "InnerProduct"
  bottom: "conv3"
  top: "ip1"
  param {
    lr_mult: 1
  }
  param {
    lr_mult: 2
  }
  inner_product_param {
    num_output: 84
    weight_filler {
      type: "xavier"
    }
    bias_filler {
      type: "constant"
    }
  }
}
layer {
  name: "relu1"
  type: "ReLU"
  bottom: "ip1"
  top: "ip1"
}
layer {
  name: "ip2"
  type: "InnerProduct"
  bottom: "ip1"
  top: "ip2"
  param {
    lr_mult: 1
  }
  param {
    lr_mult: 2
  }
  inner_product_param {
    num_output: 10
    weight_filler {
      type: "xavier"
    }
    bias_filler {
      type: "constant"
    }
  }
}
layer {
  name: "accuracy"
  type: "Accuracy"
  bottom: "ip2"
  bottom: "label"
  top: "accuracy"
  include {
    phase: TEST
  }
}
layer {
  name: "loss"
  type: "SoftmaxWithLoss"
  bottom: "ip2"
  bottom: "label"
  top: "loss"
}
I0927 17:43:03.846658 15810 layer_factory.hpp:77] Creating layer mnist
I0927 17:43:03.846818 15810 db_lmdb.cpp:35] Opened lmdb dummy/data/digits/dummy_val_lmdb
I0927 17:43:03.846837 15810 net.cpp:84] Creating Layer mnist
I0927 17:43:03.846849 15810 net.cpp:380] mnist -> data
I0927 17:43:03.846863 15810 net.cpp:380] mnist -> label
I0927 17:43:03.846933 15810 data_layer.cpp:45] output data size: 64,1,32,32
I0927 17:43:03.846983 15810 net.cpp:122] Setting up mnist
I0927 17:43:03.846997 15810 net.cpp:129] Top shape: 64 1 32 32 (65536)
I0927 17:43:03.847004 15810 net.cpp:129] Top shape: 64 (64)
I0927 17:43:03.847008 15810 net.cpp:137] Memory required for data: 262400
I0927 17:43:03.847012 15810 layer_factory.hpp:77] Creating layer label_mnist_1_split
I0927 17:43:03.847033 15810 net.cpp:84] Creating Layer label_mnist_1_split
I0927 17:43:03.847039 15810 net.cpp:406] label_mnist_1_split <- label
I0927 17:43:03.847048 15810 net.cpp:380] label_mnist_1_split -> label_mnist_1_split_0
I0927 17:43:03.847059 15810 net.cpp:380] label_mnist_1_split -> label_mnist_1_split_1
I0927 17:43:03.847069 15810 net.cpp:122] Setting up label_mnist_1_split
I0927 17:43:03.847074 15810 net.cpp:129] Top shape: 64 (64)
I0927 17:43:03.847080 15810 net.cpp:129] Top shape: 64 (64)
I0927 17:43:03.847084 15810 net.cpp:137] Memory required for data: 262912
I0927 17:43:03.847087 15810 layer_factory.hpp:77] Creating layer conv1
I0927 17:43:03.847096 15810 net.cpp:84] Creating Layer conv1
I0927 17:43:03.847102 15810 net.cpp:406] conv1 <- data
I0927 17:43:03.847111 15810 net.cpp:380] conv1 -> conv1
I0927 17:43:03.847147 15810 net.cpp:122] Setting up conv1
I0927 17:43:03.847157 15810 net.cpp:129] Top shape: 64 20 28 28 (1003520)
I0927 17:43:03.847163 15810 net.cpp:137] Memory required for data: 4276992
I0927 17:43:03.847174 15810 layer_factory.hpp:77] Creating layer pool1
I0927 17:43:03.847182 15810 net.cpp:84] Creating Layer pool1
I0927 17:43:03.847184 15810 net.cpp:406] pool1 <- conv1
I0927 17:43:03.847190 15810 net.cpp:380] pool1 -> pool1
I0927 17:43:03.847203 15810 net.cpp:122] Setting up pool1
I0927 17:43:03.847210 15810 net.cpp:129] Top shape: 64 20 14 14 (250880)
I0927 17:43:03.847215 15810 net.cpp:137] Memory required for data: 5280512
I0927 17:43:03.847220 15810 layer_factory.hpp:77] Creating layer conv2
I0927 17:43:03.847232 15810 net.cpp:84] Creating Layer conv2
I0927 17:43:03.847239 15810 net.cpp:406] conv2 <- pool1
I0927 17:43:03.847249 15810 net.cpp:380] conv2 -> conv2
I0927 17:43:03.847443 15810 net.cpp:122] Setting up conv2
I0927 17:43:03.847453 15810 net.cpp:129] Top shape: 64 50 10 10 (320000)
I0927 17:43:03.847458 15810 net.cpp:137] Memory required for data: 6560512
I0927 17:43:03.847470 15810 layer_factory.hpp:77] Creating layer pool2
I0927 17:43:03.847479 15810 net.cpp:84] Creating Layer pool2
I0927 17:43:03.847483 15810 net.cpp:406] pool2 <- conv2
I0927 17:43:03.847488 15810 net.cpp:380] pool2 -> pool2
I0927 17:43:03.847499 15810 net.cpp:122] Setting up pool2
I0927 17:43:03.847508 15810 net.cpp:129] Top shape: 64 50 5 5 (80000)
I0927 17:43:03.847513 15810 net.cpp:137] Memory required for data: 6880512
I0927 17:43:03.847519 15810 layer_factory.hpp:77] Creating layer conv3
I0927 17:43:03.847532 15810 net.cpp:84] Creating Layer conv3
I0927 17:43:03.847537 15810 net.cpp:406] conv3 <- pool2
I0927 17:43:03.847546 15810 net.cpp:380] conv3 -> conv3
I0927 17:43:03.847627 15810 net.cpp:122] Setting up conv3
I0927 17:43:03.847637 15810 net.cpp:129] Top shape: 64 120 5 5 (192000)
I0927 17:43:03.847643 15810 net.cpp:137] Memory required for data: 7648512
I0927 17:43:03.847653 15810 layer_factory.hpp:77] Creating layer ip1
I0927 17:43:03.847666 15810 net.cpp:84] Creating Layer ip1
I0927 17:43:03.847669 15810 net.cpp:406] ip1 <- conv3
I0927 17:43:03.847678 15810 net.cpp:380] ip1 -> ip1
I0927 17:43:03.849216 15810 net.cpp:122] Setting up ip1
I0927 17:43:03.849226 15810 net.cpp:129] Top shape: 64 84 (5376)
I0927 17:43:03.849231 15810 net.cpp:137] Memory required for data: 7670016
I0927 17:43:03.849241 15810 layer_factory.hpp:77] Creating layer relu1
I0927 17:43:03.849253 15810 net.cpp:84] Creating Layer relu1
I0927 17:43:03.849258 15810 net.cpp:406] relu1 <- ip1
I0927 17:43:03.849263 15810 net.cpp:367] relu1 -> ip1 (in-place)
I0927 17:43:03.849270 15810 net.cpp:122] Setting up relu1
I0927 17:43:03.849277 15810 net.cpp:129] Top shape: 64 84 (5376)
I0927 17:43:03.849282 15810 net.cpp:137] Memory required for data: 7691520
I0927 17:43:03.849287 15810 layer_factory.hpp:77] Creating layer ip2
I0927 17:43:03.849298 15810 net.cpp:84] Creating Layer ip2
I0927 17:43:03.849304 15810 net.cpp:406] ip2 <- ip1
I0927 17:43:03.849313 15810 net.cpp:380] ip2 -> ip2
I0927 17:43:03.849336 15810 net.cpp:122] Setting up ip2
I0927 17:43:03.849345 15810 net.cpp:129] Top shape: 64 10 (640)
I0927 17:43:03.849361 15810 net.cpp:137] Memory required for data: 7694080
I0927 17:43:03.849377 15810 layer_factory.hpp:77] Creating layer ip2_ip2_0_split
I0927 17:43:03.849385 15810 net.cpp:84] Creating Layer ip2_ip2_0_split
I0927 17:43:03.849390 15810 net.cpp:406] ip2_ip2_0_split <- ip2
I0927 17:43:03.849397 15810 net.cpp:380] ip2_ip2_0_split -> ip2_ip2_0_split_0
I0927 17:43:03.849406 15810 net.cpp:380] ip2_ip2_0_split -> ip2_ip2_0_split_1
I0927 17:43:03.849417 15810 net.cpp:122] Setting up ip2_ip2_0_split
I0927 17:43:03.849436 15810 net.cpp:129] Top shape: 64 10 (640)
I0927 17:43:03.849444 15810 net.cpp:129] Top shape: 64 10 (640)
I0927 17:43:03.849448 15810 net.cpp:137] Memory required for data: 7699200
I0927 17:43:03.849454 15810 layer_factory.hpp:77] Creating layer accuracy
I0927 17:43:03.849468 15810 net.cpp:84] Creating Layer accuracy
I0927 17:43:03.849473 15810 net.cpp:406] accuracy <- ip2_ip2_0_split_0
I0927 17:43:03.849478 15810 net.cpp:406] accuracy <- label_mnist_1_split_0
I0927 17:43:03.849484 15810 net.cpp:380] accuracy -> accuracy
…
