…
I0927 17:37:06.448848 15636 net.cpp:294] The NetState phase (0) differed from the phase (1) specified by a rule in layer accuracy
I0927 17:37:06.448853 15636 net.cpp:294] The NetState phase (0) differed from the phase (1) specified by a rule in layer py_accuracy
I0927 17:37:06.448968 15636 net.cpp:51] Initializing net from parameters: 
name: "LeNet"
state {
  phase: TRAIN
  level: 0
  stage: ""
}
layer {
  name: "script"
  type: "Data"
  top: "data"
  top: "label"
  include {
    phase: TRAIN
  }
  transform_param {
    scale: 0.00390625
  }
  data_param {
    source: "dummy/data/digits/dummy_train_lmdb"
    batch_size: 64
    backend: LMDB
  }
}
layer {
  name: "conv1"
  type: "Convolution"
  bottom: "data"
  top: "conv1"
  param {
    lr_mult: 1
  }
  param {
    lr_mult: 2
  }
  convolution_param {
    num_output: 6
    kernel_size: 5
    stride: 1
    weight_filler {
      type: "xavier"
    }
    bias_filler {
      type: "constant"
    }
  }
}
layer {
  name: "pool1"
  type: "Pooling"
  bottom: "conv1"
  top: "pool1"
  pooling_param {
    pool: MAX
    kernel_size: 2
    stride: 2
  }
}
layer {
  name: "conv2"
  type: "Convolution"
  bottom: "pool1"
  top: "conv2"
  param {
    lr_mult: 1
  }
  param {
    lr_mult: 2
  }
  convolution_param {
    num_output: 16
    kernel_size: 5
    stride: 1
    weight_filler {
      type: "xavier"
    }
    bias_filler {
      type: "constant"
    }
  }
}
layer {
  name: "pool2"
  type: "Pooling"
  bottom: "conv2"
  top: "pool2"
  pooling_param {
    pool: MAX
    kernel_size: 2
    stride: 2
  }
}
layer {
  name: "conv3"
  type: "Convolution"
  bottom: "pool2"
  top: "conv3"
  param {
    lr_mult: 1
  }
  param {
    lr_mult: 2
  }
  convolution_param {
    num_output: 120
    kernel_size: 1
    stride: 1
    weight_filler {
      type: "xavier"
    }
    bias_filler {
      type: "constant"
    }
  }
}
layer {
  name: "ip1"
  type: "InnerProduct"
  bottom: "conv3"
  top: "ip1"
  param {
    lr_mult: 1
  }
  param {
    lr_mult: 2
  }
  inner_product_param {
    num_output: 84
    weight_filler {
      type: "xavier"
    }
    bias_filler {
      type: "constant"
    }
  }
}
layer {
  name: "relu1"
  type: "ReLU"
  bottom: "ip1"
  top: "ip1"
}
layer {
  name: "ip2"
  type: "InnerProduct"
  bottom: "ip1"
  top: "ip2"
  param {
    lr_mult: 1
  }
  param {
    lr_mult: 2
  }
  inner_product_param {
    num_output: 10
    weight_filler {
      type: "xavier"
    }
    bias_filler {
      type: "constant"
    }
  }
}
layer {
  name: "loss"
  type: "SoftmaxWithLoss"
  bottom: "ip2"
  bottom: "label"
  top: "loss"
}
I0927 17:37:06.449033 15636 layer_factory.hpp:77] Creating layer script
I0927 17:37:06.449343 15636 db_lmdb.cpp:35] Opened lmdb dummy/data/digits/dummy_train_lmdb
I0927 17:37:06.449371 15636 net.cpp:84] Creating Layer script
I0927 17:37:06.449381 15636 net.cpp:380] script -> data
I0927 17:37:06.449404 15636 net.cpp:380] script -> label
I0927 17:37:06.449537 15636 data_layer.cpp:45] output data size: 64,1,32,32
I0927 17:37:06.450014 15636 net.cpp:122] Setting up script
I0927 17:37:06.450026 15636 net.cpp:129] Top shape: 64 1 32 32 (65536)
I0927 17:37:06.450033 15636 net.cpp:129] Top shape: 64 (64)
I0927 17:37:06.450037 15636 net.cpp:137] Memory required for data: 262400
I0927 17:37:06.450045 15636 layer_factory.hpp:77] Creating layer conv1
I0927 17:37:06.450060 15636 net.cpp:84] Creating Layer conv1
I0927 17:37:06.450079 15636 net.cpp:406] conv1 <- data
I0927 17:37:06.450093 15636 net.cpp:380] conv1 -> conv1
I0927 17:37:06.450141 15636 net.cpp:122] Setting up conv1
I0927 17:37:06.450150 15636 net.cpp:129] Top shape: 64 6 28 28 (301056)
I0927 17:37:06.450155 15636 net.cpp:137] Memory required for data: 1466624
I0927 17:37:06.450171 15636 layer_factory.hpp:77] Creating layer pool1
I0927 17:37:06.450181 15636 net.cpp:84] Creating Layer pool1
I0927 17:37:06.450184 15636 net.cpp:406] pool1 <- conv1
I0927 17:37:06.450191 15636 net.cpp:380] pool1 -> pool1
I0927 17:37:06.450206 15636 net.cpp:122] Setting up pool1
I0927 17:37:06.450213 15636 net.cpp:129] Top shape: 64 6 14 14 (75264)
I0927 17:37:06.450218 15636 net.cpp:137] Memory required for data: 1767680
I0927 17:37:06.450222 15636 layer_factory.hpp:77] Creating layer conv2
I0927 17:37:06.450232 15636 net.cpp:84] Creating Layer conv2
I0927 17:37:06.450235 15636 net.cpp:406] conv2 <- pool1
I0927 17:37:06.450243 15636 net.cpp:380] conv2 -> conv2
I0927 17:37:06.450289 15636 net.cpp:122] Setting up conv2
I0927 17:37:06.450295 15636 net.cpp:129] Top shape: 64 16 10 10 (102400)
I0927 17:37:06.450299 15636 net.cpp:137] Memory required for data: 2177280
I0927 17:37:06.450309 15636 layer_factory.hpp:77] Creating layer pool2
I0927 17:37:06.450317 15636 net.cpp:84] Creating Layer pool2
I0927 17:37:06.450321 15636 net.cpp:406] pool2 <- conv2
I0927 17:37:06.450328 15636 net.cpp:380] pool2 -> pool2
I0927 17:37:06.450337 15636 net.cpp:122] Setting up pool2
I0927 17:37:06.450345 15636 net.cpp:129] Top shape: 64 16 5 5 (25600)
I0927 17:37:06.450348 15636 net.cpp:137] Memory required for data: 2279680
I0927 17:37:06.450352 15636 layer_factory.hpp:77] Creating layer conv3
I0927 17:37:06.450361 15636 net.cpp:84] Creating Layer conv3
I0927 17:37:06.450366 15636 net.cpp:406] conv3 <- pool2
I0927 17:37:06.450372 15636 net.cpp:380] conv3 -> conv3
I0927 17:37:06.450410 15636 net.cpp:122] Setting up conv3
I0927 17:37:06.450417 15636 net.cpp:129] Top shape: 64 120 5 5 (192000)
I0927 17:37:06.450423 15636 net.cpp:137] Memory required for data: 3047680
I0927 17:37:06.450431 15636 layer_factory.hpp:77] Creating layer ip1
I0927 17:37:06.450439 15636 net.cpp:84] Creating Layer ip1
I0927 17:37:06.450444 15636 net.cpp:406] ip1 <- conv3
I0927 17:37:06.450451 15636 net.cpp:380] ip1 -> ip1
I0927 17:37:06.452991 15636 net.cpp:122] Setting up ip1
I0927 17:37:06.453001 15636 net.cpp:129] Top shape: 64 84 (5376)
I0927 17:37:06.453004 15636 net.cpp:137] Memory required for data: 3069184
I0927 17:37:06.453012 15636 layer_factory.hpp:77] Creating layer relu1
I0927 17:37:06.453019 15636 net.cpp:84] Creating Layer relu1
I0927 17:37:06.453024 15636 net.cpp:406] relu1 <- ip1
I0927 17:37:06.453030 15636 net.cpp:367] relu1 -> ip1 (in-place)
I0927 17:37:06.453039 15636 net.cpp:122] Setting up relu1
I0927 17:37:06.453045 15636 net.cpp:129] Top shape: 64 84 (5376)
I0927 17:37:06.453049 15636 net.cpp:137] Memory required for data: 3090688
I0927 17:37:06.453053 15636 layer_factory.hpp:77] Creating layer ip2
I0927 17:37:06.453061 15636 net.cpp:84] Creating Layer ip2
I0927 17:37:06.453066 15636 net.cpp:406] ip2 <- ip1
I0927 17:37:06.453073 15636 net.cpp:380] ip2 -> ip2
I0927 17:37:06.453101 15636 net.cpp:122] Setting up ip2
I0927 17:37:06.453109 15636 net.cpp:129] Top shape: 64 10 (640)
I0927 17:37:06.453114 15636 net.cpp:137] Memory required for data: 3093248
I0927 17:37:06.453122 15636 layer_factory.hpp:77] Creating layer loss
I0927 17:37:06.453131 15636 net.cpp:84] Creating Layer loss
I0927 17:37:06.453135 15636 net.cpp:406] loss <- ip2
I0927 17:37:06.453141 15636 net.cpp:406] loss <- label
I0927 17:37:06.453150 15636 net.cpp:380] loss -> loss
I0927 17:37:06.453161 15636 layer_factory.hpp:77] Creating layer loss
…
I0927 17:37:06.453567 15636 solver.cpp:172] Creating test net (#0) specified by net file: dummy/jackson/models/config1/lenet_train_val.prototxt
I0927 17:37:06.453599 15636 net.cpp:294] The NetState phase (1) differed from the phase (0) specified by a rule in layer script
I0927 17:37:06.453737 15636 net.cpp:51] Initializing net from parameters: 
name: "LeNet"
state {
  phase: TEST
}
layer {
  name: "mnist"
  type: "Data"
  top: "data"
  top: "label"
  include {
    phase: TEST
  }
  transform_param {
    scale: 0.00390625
  }
  data_param {
    source: "dummy/data/digits/dummy_val_lmdb"
    batch_size: 64
    backend: LMDB
  }
}
layer {
  name: "conv1"
  type: "Convolution"
  bottom: "data"
  top: "conv1"
  param {
    lr_mult: 1
  }
  param {
    lr_mult: 2
  }
  convolution_param {
    num_output: 6
    kernel_size: 5
    stride: 1
    weight_filler {
      type: "xavier"
    }
    bias_filler {
      type: "constant"
    }
  }
}
layer {
  name: "pool1"
  type: "Pooling"
  bottom: "conv1"
  top: "pool1"
  pooling_param {
    pool: MAX
    kernel_size: 2
    stride: 2
  }
}
layer {
  name: "conv2"
  type: "Convolution"
  bottom: "pool1"
  top: "conv2"
  param {
    lr_mult: 1
  }
  param {
    lr_mult: 2
  }
  convolution_param {
    num_output: 16
    kernel_size: 5
    stride: 1
    weight_filler {
      type: "xavier"
    }
    bias_filler {
      type: "constant"
    }
  }
}
layer {
  name: "pool2"
  type: "Pooling"
  bottom: "conv2"
  top: "pool2"
  pooling_param {
    pool: MAX
    kernel_size: 2
    stride: 2
  }
}
layer {
  name: "conv3"
  type: "Convolution"
  bottom: "pool2"
  top: "conv3"
  param {
    lr_mult: 1
  }
  param {
    lr_mult: 2
  }
  convolution_param {
    num_output: 120
    kernel_size: 1
    stride: 1
    weight_filler {
      type: "xavier"
    }
    bias_filler {
      type: "constant"
    }
  }
}
layer {
  name: "ip1"
  type: "InnerProduct"
  bottom: "conv3"
  top: "ip1"
  param {
    lr_mult: 1
  }
  param {
    lr_mult: 2
  }
  inner_product_param {
    num_output: 84
    weight_filler {
      type: "xavier"
    }
    bias_filler {
      type: "constant"
    }
  }
}
layer {
  name: "relu1"
  type: "ReLU"
  bottom: "ip1"
  top: "ip1"
}
layer {
  name: "ip2"
  type: "InnerProduct"
  bottom: "ip1"
  top: "ip2"
  param {
    lr_mult: 1
  }
  param {
    lr_mult: 2
  }
  inner_product_param {
    num_output: 10
    weight_filler {
      type: "xavier"
    }
    bias_filler {
      type: "constant"
    }
  }
}
layer {
  name: "accuracy"
  type: "Accuracy"
  bottom: "ip2"
  bottom: "label"
  top: "accuracy"
  include {
    phase: TEST
  }
}
layer {
  name: "py_accuracy"
  type: "Python"
  bottom: "ip2"
  bottom: "label"
  top: "py_accuracy"
  include {
    phase: TEST
  }
  python_param {
    module: "python_confmat"
    layer: "PythonConfMat"
    param_str: "{\"test_iter\":50}"
  }
}
layer {
  name: "loss"
  type: "SoftmaxWithLoss"
  bottom: "ip2"
  bottom: "label"
  top: "loss"
}
I0927 17:37:06.453831 15636 layer_factory.hpp:77] Creating layer mnist
I0927 17:37:06.453990 15636 db_lmdb.cpp:35] Opened lmdb dummy/data/digits/dummy_val_lmdb
I0927 17:37:06.454006 15636 net.cpp:84] Creating Layer mnist
I0927 17:37:06.454015 15636 net.cpp:380] mnist -> data
I0927 17:37:06.454025 15636 net.cpp:380] mnist -> label
I0927 17:37:06.454099 15636 data_layer.cpp:45] output data size: 64,1,32,32
I0927 17:37:06.454299 15636 net.cpp:122] Setting up mnist
I0927 17:37:06.454309 15636 net.cpp:129] Top shape: 64 1 32 32 (65536)
I0927 17:37:06.454315 15636 net.cpp:129] Top shape: 64 (64)
I0927 17:37:06.454319 15636 net.cpp:137] Memory required for data: 262400
I0927 17:37:06.454324 15636 layer_factory.hpp:77] Creating layer label_mnist_1_split
I0927 17:37:06.454334 15636 net.cpp:84] Creating Layer label_mnist_1_split
I0927 17:37:06.454339 15636 net.cpp:406] label_mnist_1_split <- label
I0927 17:37:06.454346 15636 net.cpp:380] label_mnist_1_split -> label_mnist_1_split_0
I0927 17:37:06.454356 15636 net.cpp:380] label_mnist_1_split -> label_mnist_1_split_1
I0927 17:37:06.454365 15636 net.cpp:380] label_mnist_1_split -> label_mnist_1_split_2
I0927 17:37:06.454375 15636 net.cpp:122] Setting up label_mnist_1_split
I0927 17:37:06.454382 15636 net.cpp:129] Top shape: 64 (64)
I0927 17:37:06.454387 15636 net.cpp:129] Top shape: 64 (64)
I0927 17:37:06.454393 15636 net.cpp:129] Top shape: 64 (64)
I0927 17:37:06.454396 15636 net.cpp:137] Memory required for data: 263168
I0927 17:37:06.454401 15636 layer_factory.hpp:77] Creating layer conv1
I0927 17:37:06.454413 15636 net.cpp:84] Creating Layer conv1
I0927 17:37:06.454418 15636 net.cpp:406] conv1 <- data
I0927 17:37:06.454427 15636 net.cpp:380] conv1 -> conv1
I0927 17:37:06.454450 15636 net.cpp:122] Setting up conv1
I0927 17:37:06.454458 15636 net.cpp:129] Top shape: 64 6 28 28 (301056)
I0927 17:37:06.454463 15636 net.cpp:137] Memory required for data: 1467392
I0927 17:37:06.454474 15636 layer_factory.hpp:77] Creating layer pool1
I0927 17:37:06.454481 15636 net.cpp:84] Creating Layer pool1
I0927 17:37:06.454485 15636 net.cpp:406] pool1 <- conv1
I0927 17:37:06.454493 15636 net.cpp:380] pool1 -> pool1
I0927 17:37:06.454502 15636 net.cpp:122] Setting up pool1
I0927 17:37:06.454515 15636 net.cpp:129] Top shape: 64 6 14 14 (75264)
I0927 17:37:06.454519 15636 net.cpp:137] Memory required for data: 1768448
I0927 17:37:06.454524 15636 layer_factory.hpp:77] Creating layer conv2
I0927 17:37:06.454537 15636 net.cpp:84] Creating Layer conv2
I0927 17:37:06.454542 15636 net.cpp:406] conv2 <- pool1
I0927 17:37:06.454550 15636 net.cpp:380] conv2 -> conv2
I0927 17:37:06.454596 15636 net.cpp:122] Setting up conv2
I0927 17:37:06.454604 15636 net.cpp:129] Top shape: 64 16 10 10 (102400)
I0927 17:37:06.454608 15636 net.cpp:137] Memory required for data: 2178048
I0927 17:37:06.454618 15636 layer_factory.hpp:77] Creating layer pool2
I0927 17:37:06.454624 15636 net.cpp:84] Creating Layer pool2
I0927 17:37:06.454629 15636 net.cpp:406] pool2 <- conv2
I0927 17:37:06.454635 15636 net.cpp:380] pool2 -> pool2
I0927 17:37:06.454646 15636 net.cpp:122] Setting up pool2
I0927 17:37:06.454653 15636 net.cpp:129] Top shape: 64 16 5 5 (25600)
I0927 17:37:06.454658 15636 net.cpp:137] Memory required for data: 2280448
I0927 17:37:06.454661 15636 layer_factory.hpp:77] Creating layer conv3
I0927 17:37:06.454671 15636 net.cpp:84] Creating Layer conv3
I0927 17:37:06.454676 15636 net.cpp:406] conv3 <- pool2
I0927 17:37:06.454684 15636 net.cpp:380] conv3 -> conv3
I0927 17:37:06.454725 15636 net.cpp:122] Setting up conv3
I0927 17:37:06.454732 15636 net.cpp:129] Top shape: 64 120 5 5 (192000)
I0927 17:37:06.454736 15636 net.cpp:137] Memory required for data: 3048448
I0927 17:37:06.454747 15636 layer_factory.hpp:77] Creating layer ip1
I0927 17:37:06.454756 15636 net.cpp:84] Creating Layer ip1
I0927 17:37:06.454761 15636 net.cpp:406] ip1 <- conv3
I0927 17:37:06.454768 15636 net.cpp:380] ip1 -> ip1
I0927 17:37:06.457327 15636 net.cpp:122] Setting up ip1
I0927 17:37:06.457340 15636 net.cpp:129] Top shape: 64 84 (5376)
I0927 17:37:06.457345 15636 net.cpp:137] Memory required for data: 3069952
I0927 17:37:06.457353 15636 layer_factory.hpp:77] Creating layer relu1
I0927 17:37:06.457361 15636 net.cpp:84] Creating Layer relu1
I0927 17:37:06.457366 15636 net.cpp:406] relu1 <- ip1
I0927 17:37:06.457373 15636 net.cpp:367] relu1 -> ip1 (in-place)
I0927 17:37:06.457392 15636 net.cpp:122] Setting up relu1
I0927 17:37:06.457398 15636 net.cpp:129] Top shape: 64 84 (5376)
I0927 17:37:06.457402 15636 net.cpp:137] Memory required for data: 3091456
I0927 17:37:06.457406 15636 layer_factory.hpp:77] Creating layer ip2
I0927 17:37:06.457417 15636 net.cpp:84] Creating Layer ip2
I0927 17:37:06.457428 15636 net.cpp:406] ip2 <- ip1
I0927 17:37:06.457438 15636 net.cpp:380] ip2 -> ip2
I0927 17:37:06.457466 15636 net.cpp:122] Setting up ip2
I0927 17:37:06.457478 15636 net.cpp:129] Top shape: 64 10 (640)
I0927 17:37:06.457481 15636 net.cpp:137] Memory required for data: 3094016
I0927 17:37:06.457492 15636 layer_factory.hpp:77] Creating layer ip2_ip2_0_split
I0927 17:37:06.457499 15636 net.cpp:84] Creating Layer ip2_ip2_0_split
I0927 17:37:06.457504 15636 net.cpp:406] ip2_ip2_0_split <- ip2
I0927 17:37:06.457515 15636 net.cpp:380] ip2_ip2_0_split -> ip2_ip2_0_split_0
I0927 17:37:06.457523 15636 net.cpp:380] ip2_ip2_0_split -> ip2_ip2_0_split_1
I0927 17:37:06.457532 15636 net.cpp:380] ip2_ip2_0_split -> ip2_ip2_0_split_2
I0927 17:37:06.457541 15636 net.cpp:122] Setting up ip2_ip2_0_split
I0927 17:37:06.457547 15636 net.cpp:129] Top shape: 64 10 (640)
I0927 17:37:06.457553 15636 net.cpp:129] Top shape: 64 10 (640)
I0927 17:37:06.457558 15636 net.cpp:129] Top shape: 64 10 (640)
I0927 17:37:06.457563 15636 net.cpp:137] Memory required for data: 3101696
I0927 17:37:06.457567 15636 layer_factory.hpp:77] Creating layer accuracy
I0927 17:37:06.457574 15636 net.cpp:84] Creating Layer accuracy
I0927 17:37:06.457579 15636 net.cpp:406] accuracy <- ip2_ip2_0_split_0
I0927 17:37:06.457584 15636 net.cpp:406] accuracy <- label_mnist_1_split_0
I0927 17:37:06.457593 15636 net.cpp:380] accuracy -> accuracy
I0927 17:37:06.457603 15636 net.cpp:122] Setting up accuracy
I0927 17:37:06.457609 15636 net.cpp:129] Top shape: (1)
I0927 17:37:06.457613 15636 net.cpp:137] Memory required for data: 3101700
I0927 17:37:06.457617 15636 layer_factory.hpp:77] Creating layer py_accuracy
I0927 17:37:06.901031 15636 net.cpp:84] Creating Layer py_accuracy
I0927 17:37:06.901054 15636 net.cpp:406] py_accuracy <- ip2_ip2_0_split_1
I0927 17:37:06.901063 15636 net.cpp:406] py_accuracy <- label_mnist_1_split_1
I0927 17:37:06.901070 15636 net.cpp:380] py_accuracy -> py_accuracy
I0927 17:37:06.901257 15636 net.cpp:122] Setting up py_accuracy
I0927 17:37:06.901269 15636 net.cpp:129] Top shape: 1 (1)
I0927 17:37:06.901273 15636 net.cpp:137] Memory required for data: 3101704
I0927 17:37:06.901276 15636 layer_factory.hpp:77] Creating layer loss
I0927 17:37:06.901283 15636 net.cpp:84] Creating Layer loss
I0927 17:37:06.901285 15636 net.cpp:406] loss <- ip2_ip2_0_split_2
I0927 17:37:06.901289 15636 net.cpp:406] loss <- label_mnist_1_split_2
I0927 17:37:06.901295 15636 net.cpp:380] loss -> loss
…
