…
I0928 10:56:16.679949 28848 net.cpp:294] The NetState phase (0) differed from the phase (1) specified by a rule in layer mnist
I0928 10:56:16.680028 28848 net.cpp:294] The NetState phase (0) differed from the phase (1) specified by a rule in layer accuracy
I0928 10:56:16.680212 28848 net.cpp:51] Initializing net from parameters: 
name: "LeNet"
state {
  phase: TRAIN
  level: 0
  stage: ""
}
layer {
  name: "script"
  type: "Data"
  top: "data"
  top: "label"
  include {
    phase: TRAIN
  }
  transform_param {
    scale: 0.00390625
  }
  data_param {
    source: "dummy/data/digits/dummy_train_lmdb"
    batch_size: 64
    backend: LMDB
  }
}
layer {
  name: "conv1"
  type: "Convolution"
  bottom: "data"
  top: "conv1"
  param {
    lr_mult: 1
  }
  param {
    lr_mult: 2
  }
  convolution_param {
    num_output: 20
    kernel_size: 5
    stride: 1
    weight_filler {
      type: "xavier"
    }
    bias_filler {
      type: "constant"
    }
  }
}
layer {
  name: "pool1"
  type: "Pooling"
  bottom: "conv1"
  top: "pool1"
  pooling_param {
    pool: MAX
    kernel_size: 2
    stride: 2
  }
}
layer {
  name: "conv2"
  type: "Convolution"
  bottom: "pool1"
  top: "conv2"
  param {
    lr_mult: 1
  }
  param {
    lr_mult: 2
  }
  convolution_param {
    num_output: 50
    kernel_size: 5
    stride: 1
    weight_filler {
      type: "xavier"
    }
    bias_filler {
      type: "constant"
    }
  }
}
layer {
  name: "pool2"
  type: "Pooling"
  bottom: "conv2"
  top: "pool2"
  pooling_param {
    pool: MAX
    kernel_size: 2
    stride: 2
  }
}
layer {
  name: "ip1"
  type: "InnerProduct"
  bottom: "pool2"
  top: "ip1"
  param {
    lr_mult: 1
  }
  param {
    lr_mult: 2
  }
  inner_product_param {
    num_output: 500
    weight_filler {
      type: "xavier"
    }
    bias_filler {
      type: "constant"
    }
  }
}
layer {
  name: "relu1"
  type: "ReLU"
  bottom: "ip1"
  top: "ip1"
}
layer {
  name: "ip2"
  type: "InnerProduct"
  bottom: "ip1"
  top: "ip2"
  param {
    lr_mult: 1
  }
  param {
    lr_mult: 2
  }
  inner_product_param {
    num_output: 10
    weight_filler {
      type: "xavier"
    }
    bias_filler {
      type: "constant"
    }
  }
}
layer {
  name: "loss"
  type: "SoftmaxWithLoss"
  bottom: "ip2"
  bottom: "label"
  top: "loss"
}
I0928 10:56:16.684370 28848 layer_factory.hpp:77] Creating layer script
I0928 10:56:16.684659 28848 db_lmdb.cpp:35] Opened lmdb dummy/data/digits/dummy_train_lmdb
I0928 10:56:16.684739 28848 net.cpp:84] Creating Layer script
I0928 10:56:16.684804 28848 net.cpp:380] script -> data
I0928 10:56:16.684885 28848 net.cpp:380] script -> label
I0928 10:56:16.685066 28848 data_layer.cpp:45] output data size: 64,1,32,32
I0928 10:56:16.685616 28848 net.cpp:122] Setting up script
I0928 10:56:16.685688 28848 net.cpp:129] Top shape: 64 1 32 32 (65536)
I0928 10:56:16.685696 28848 net.cpp:129] Top shape: 64 (64)
I0928 10:56:16.685701 28848 net.cpp:137] Memory required for data: 262400
I0928 10:56:16.685788 28848 layer_factory.hpp:77] Creating layer conv1
I0928 10:56:16.685878 28848 net.cpp:84] Creating Layer conv1
I0928 10:56:16.685887 28848 net.cpp:406] conv1 <- data
I0928 10:56:16.685901 28848 net.cpp:380] conv1 -> conv1
I0928 10:56:16.685953 28848 net.cpp:122] Setting up conv1
I0928 10:56:16.685962 28848 net.cpp:129] Top shape: 64 20 28 28 (1003520)
I0928 10:56:16.685967 28848 net.cpp:137] Memory required for data: 4276480
I0928 10:56:16.685986 28848 layer_factory.hpp:77] Creating layer pool1
I0928 10:56:16.685995 28848 net.cpp:84] Creating Layer pool1
I0928 10:56:16.686017 28848 net.cpp:406] pool1 <- conv1
I0928 10:56:16.686024 28848 net.cpp:380] pool1 -> pool1
I0928 10:56:16.686045 28848 net.cpp:122] Setting up pool1
I0928 10:56:16.686053 28848 net.cpp:129] Top shape: 64 20 14 14 (250880)
I0928 10:56:16.686058 28848 net.cpp:137] Memory required for data: 5280000
I0928 10:56:16.686064 28848 layer_factory.hpp:77] Creating layer conv2
I0928 10:56:16.686072 28848 net.cpp:84] Creating Layer conv2
I0928 10:56:16.686077 28848 net.cpp:406] conv2 <- pool1
I0928 10:56:16.686085 28848 net.cpp:380] conv2 -> conv2
I0928 10:56:16.686363 28848 net.cpp:122] Setting up conv2
I0928 10:56:16.686373 28848 net.cpp:129] Top shape: 64 50 10 10 (320000)
I0928 10:56:16.686379 28848 net.cpp:137] Memory required for data: 6560000
I0928 10:56:16.686390 28848 layer_factory.hpp:77] Creating layer pool2
I0928 10:56:16.686398 28848 net.cpp:84] Creating Layer pool2
I0928 10:56:16.686403 28848 net.cpp:406] pool2 <- conv2
I0928 10:56:16.686410 28848 net.cpp:380] pool2 -> pool2
I0928 10:56:16.686420 28848 net.cpp:122] Setting up pool2
I0928 10:56:16.686427 28848 net.cpp:129] Top shape: 64 50 5 5 (80000)
I0928 10:56:16.686431 28848 net.cpp:137] Memory required for data: 6880000
I0928 10:56:16.686435 28848 layer_factory.hpp:77] Creating layer ip1
I0928 10:56:16.686444 28848 net.cpp:84] Creating Layer ip1
I0928 10:56:16.686449 28848 net.cpp:406] ip1 <- pool2
I0928 10:56:16.686455 28848 net.cpp:380] ip1 -> ip1
I0928 10:56:16.692729 28848 net.cpp:122] Setting up ip1
I0928 10:56:16.692756 28848 net.cpp:129] Top shape: 64 500 (32000)
I0928 10:56:16.692761 28848 net.cpp:137] Memory required for data: 7008000
I0928 10:56:16.692773 28848 layer_factory.hpp:77] Creating layer relu1
I0928 10:56:16.692780 28848 net.cpp:84] Creating Layer relu1
I0928 10:56:16.692785 28848 net.cpp:406] relu1 <- ip1
I0928 10:56:16.692792 28848 net.cpp:367] relu1 -> ip1 (in-place)
I0928 10:56:16.692801 28848 net.cpp:122] Setting up relu1
I0928 10:56:16.692807 28848 net.cpp:129] Top shape: 64 500 (32000)
I0928 10:56:16.692812 28848 net.cpp:137] Memory required for data: 7136000
I0928 10:56:16.692816 28848 layer_factory.hpp:77] Creating layer ip2
I0928 10:56:16.692823 28848 net.cpp:84] Creating Layer ip2
I0928 10:56:16.692828 28848 net.cpp:406] ip2 <- ip1
I0928 10:56:16.692836 28848 net.cpp:380] ip2 -> ip2
I0928 10:56:16.692906 28848 net.cpp:122] Setting up ip2
I0928 10:56:16.692919 28848 net.cpp:129] Top shape: 64 10 (640)
I0928 10:56:16.692922 28848 net.cpp:137] Memory required for data: 7138560
I0928 10:56:16.692931 28848 layer_factory.hpp:77] Creating layer loss
I0928 10:56:16.692939 28848 net.cpp:84] Creating Layer loss
I0928 10:56:16.692945 28848 net.cpp:406] loss <- ip2
I0928 10:56:16.692950 28848 net.cpp:406] loss <- label
I0928 10:56:16.692957 28848 net.cpp:380] loss -> loss
I0928 10:56:16.692971 28848 layer_factory.hpp:77] Creating layer loss
…
I0928 10:56:16.693320 28848 solver.cpp:172] Creating test net (#0) specified by net file: dummy/jackson/models/config1/lenet_train_val.prototxt
I0928 10:56:16.693358 28848 net.cpp:294] The NetState phase (1) differed from the phase (0) specified by a rule in layer script
I0928 10:56:16.693485 28848 net.cpp:51] Initializing net from parameters: 
name: "LeNet"
state {
  phase: TEST
}
layer {
  name: "mnist"
  type: "Data"
  top: "data"
  top: "label"
  include {
    phase: TEST
  }
  transform_param {
    scale: 0.00390625
  }
  data_param {
    source: "dummy/data/digits/dummy_val_lmdb"
    batch_size: 64
    backend: LMDB
  }
}
layer {
  name: "conv1"
  type: "Convolution"
  bottom: "data"
  top: "conv1"
  param {
    lr_mult: 1
  }
  param {
    lr_mult: 2
  }
  convolution_param {
    num_output: 20
    kernel_size: 5
    stride: 1
    weight_filler {
      type: "xavier"
    }
    bias_filler {
      type: "constant"
    }
  }
}
layer {
  name: "pool1"
  type: "Pooling"
  bottom: "conv1"
  top: "pool1"
  pooling_param {
    pool: MAX
    kernel_size: 2
    stride: 2
  }
}
layer {
  name: "conv2"
  type: "Convolution"
  bottom: "pool1"
  top: "conv2"
  param {
    lr_mult: 1
  }
  param {
    lr_mult: 2
  }
  convolution_param {
    num_output: 50
    kernel_size: 5
    stride: 1
    weight_filler {
      type: "xavier"
    }
    bias_filler {
      type: "constant"
    }
  }
}
layer {
  name: "pool2"
  type: "Pooling"
  bottom: "conv2"
  top: "pool2"
  pooling_param {
    pool: MAX
    kernel_size: 2
    stride: 2
  }
}
layer {
  name: "ip1"
  type: "InnerProduct"
  bottom: "pool2"
  top: "ip1"
  param {
    lr_mult: 1
  }
  param {
    lr_mult: 2
  }
  inner_product_param {
    num_output: 500
    weight_filler {
      type: "xavier"
    }
    bias_filler {
      type: "constant"
    }
  }
}
layer {
  name: "relu1"
  type: "ReLU"
  bottom: "ip1"
  top: "ip1"
}
layer {
  name: "ip2"
  type: "InnerProduct"
  bottom: "ip1"
  top: "ip2"
  param {
    lr_mult: 1
  }
  param {
    lr_mult: 2
  }
  inner_product_param {
    num_output: 10
    weight_filler {
      type: "xavier"
    }
    bias_filler {
      type: "constant"
    }
  }
}
layer {
  name: "accuracy"
  type: "Accuracy"
  bottom: "ip2"
  bottom: "label"
  top: "accuracy"
  include {
    phase: TEST
  }
}
layer {
  name: "loss"
  type: "SoftmaxWithLoss"
  bottom: "ip2"
  bottom: "label"
  top: "loss"
}
I0928 10:56:16.693567 28848 layer_factory.hpp:77] Creating layer mnist
I0928 10:56:16.693783 28848 db_lmdb.cpp:35] Opened lmdb dummy/data/digits/dummy_val_lmdb
I0928 10:56:16.693796 28848 net.cpp:84] Creating Layer mnist
I0928 10:56:16.693804 28848 net.cpp:380] mnist -> data
I0928 10:56:16.693816 28848 net.cpp:380] mnist -> label
I0928 10:56:16.693881 28848 data_layer.cpp:45] output data size: 64,1,32,32
I0928 10:56:16.693927 28848 net.cpp:122] Setting up mnist
I0928 10:56:16.693936 28848 net.cpp:129] Top shape: 64 1 32 32 (65536)
I0928 10:56:16.693943 28848 net.cpp:129] Top shape: 64 (64)
I0928 10:56:16.693946 28848 net.cpp:137] Memory required for data: 262400
I0928 10:56:16.693953 28848 layer_factory.hpp:77] Creating layer label_mnist_1_split
I0928 10:56:16.693963 28848 net.cpp:84] Creating Layer label_mnist_1_split
I0928 10:56:16.693967 28848 net.cpp:406] label_mnist_1_split <- label
I0928 10:56:16.693974 28848 net.cpp:380] label_mnist_1_split -> label_mnist_1_split_0
I0928 10:56:16.693984 28848 net.cpp:380] label_mnist_1_split -> label_mnist_1_split_1
I0928 10:56:16.693994 28848 net.cpp:122] Setting up label_mnist_1_split
I0928 10:56:16.694001 28848 net.cpp:129] Top shape: 64 (64)
I0928 10:56:16.694007 28848 net.cpp:129] Top shape: 64 (64)
I0928 10:56:16.694011 28848 net.cpp:137] Memory required for data: 262912
I0928 10:56:16.694015 28848 layer_factory.hpp:77] Creating layer conv1
I0928 10:56:16.694028 28848 net.cpp:84] Creating Layer conv1
I0928 10:56:16.694033 28848 net.cpp:406] conv1 <- data
I0928 10:56:16.694041 28848 net.cpp:380] conv1 -> conv1
I0928 10:56:16.694075 28848 net.cpp:122] Setting up conv1
I0928 10:56:16.694083 28848 net.cpp:129] Top shape: 64 20 28 28 (1003520)
I0928 10:56:16.694088 28848 net.cpp:137] Memory required for data: 4276992
I0928 10:56:16.694100 28848 layer_factory.hpp:77] Creating layer pool1
I0928 10:56:16.694119 28848 net.cpp:84] Creating Layer pool1
I0928 10:56:16.694124 28848 net.cpp:406] pool1 <- conv1
I0928 10:56:16.694133 28848 net.cpp:380] pool1 -> pool1
I0928 10:56:16.694144 28848 net.cpp:122] Setting up pool1
I0928 10:56:16.694151 28848 net.cpp:129] Top shape: 64 20 14 14 (250880)
I0928 10:56:16.694156 28848 net.cpp:137] Memory required for data: 5280512
I0928 10:56:16.694160 28848 layer_factory.hpp:77] Creating layer conv2
I0928 10:56:16.694172 28848 net.cpp:84] Creating Layer conv2
I0928 10:56:16.694177 28848 net.cpp:406] conv2 <- pool1
I0928 10:56:16.694185 28848 net.cpp:380] conv2 -> conv2
I0928 10:56:16.694460 28848 net.cpp:122] Setting up conv2
I0928 10:56:16.694473 28848 net.cpp:129] Top shape: 64 50 10 10 (320000)
I0928 10:56:16.694478 28848 net.cpp:137] Memory required for data: 6560512
I0928 10:56:16.694489 28848 layer_factory.hpp:77] Creating layer pool2
I0928 10:56:16.694499 28848 net.cpp:84] Creating Layer pool2
I0928 10:56:16.694504 28848 net.cpp:406] pool2 <- conv2
I0928 10:56:16.694510 28848 net.cpp:380] pool2 -> pool2
I0928 10:56:16.694520 28848 net.cpp:122] Setting up pool2
I0928 10:56:16.694527 28848 net.cpp:129] Top shape: 64 50 5 5 (80000)
I0928 10:56:16.694531 28848 net.cpp:137] Memory required for data: 6880512
I0928 10:56:16.694535 28848 layer_factory.hpp:77] Creating layer ip1
I0928 10:56:16.694545 28848 net.cpp:84] Creating Layer ip1
I0928 10:56:16.694550 28848 net.cpp:406] ip1 <- pool2
I0928 10:56:16.694558 28848 net.cpp:380] ip1 -> ip1
I0928 10:56:16.700366 28848 net.cpp:122] Setting up ip1
I0928 10:56:16.700443 28848 net.cpp:129] Top shape: 64 500 (32000)
I0928 10:56:16.700495 28848 net.cpp:137] Memory required for data: 7008512
I0928 10:56:16.700553 28848 layer_factory.hpp:77] Creating layer relu1
I0928 10:56:16.700608 28848 net.cpp:84] Creating Layer relu1
I0928 10:56:16.700659 28848 net.cpp:406] relu1 <- ip1
I0928 10:56:16.700709 28848 net.cpp:367] relu1 -> ip1 (in-place)
I0928 10:56:16.700763 28848 net.cpp:122] Setting up relu1
I0928 10:56:16.700814 28848 net.cpp:129] Top shape: 64 500 (32000)
I0928 10:56:16.700861 28848 net.cpp:137] Memory required for data: 7136512
I0928 10:56:16.700907 28848 layer_factory.hpp:77] Creating layer ip2
I0928 10:56:16.700963 28848 net.cpp:84] Creating Layer ip2
I0928 10:56:16.701014 28848 net.cpp:406] ip2 <- ip1
I0928 10:56:16.701067 28848 net.cpp:380] ip2 -> ip2
I0928 10:56:16.701182 28848 net.cpp:122] Setting up ip2
I0928 10:56:16.701237 28848 net.cpp:129] Top shape: 64 10 (640)
I0928 10:56:16.701284 28848 net.cpp:137] Memory required for data: 7139072
I0928 10:56:16.701337 28848 layer_factory.hpp:77] Creating layer ip2_ip2_0_split
I0928 10:56:16.701388 28848 net.cpp:84] Creating Layer ip2_ip2_0_split
I0928 10:56:16.701442 28848 net.cpp:406] ip2_ip2_0_split <- ip2
I0928 10:56:16.701495 28848 net.cpp:380] ip2_ip2_0_split -> ip2_ip2_0_split_0
I0928 10:56:16.701555 28848 net.cpp:380] ip2_ip2_0_split -> ip2_ip2_0_split_1
I0928 10:56:16.701611 28848 net.cpp:122] Setting up ip2_ip2_0_split
I0928 10:56:16.701663 28848 net.cpp:129] Top shape: 64 10 (640)
I0928 10:56:16.701711 28848 net.cpp:129] Top shape: 64 10 (640)
I0928 10:56:16.701757 28848 net.cpp:137] Memory required for data: 7144192
I0928 10:56:16.701804 28848 layer_factory.hpp:77] Creating layer accuracy
I0928 10:56:16.701854 28848 net.cpp:84] Creating Layer accuracy
I0928 10:56:16.701902 28848 net.cpp:406] accuracy <- ip2_ip2_0_split_0
I0928 10:56:16.701951 28848 net.cpp:406] accuracy <- label_mnist_1_split_0
I0928 10:56:16.702005 28848 net.cpp:380] accuracy -> accuracy
…
