…
I0927 21:05:31.368345 20221 net.cpp:294] The NetState phase (0) differed from the phase (1) specified by a rule in layer mnist
I0927 21:05:31.368381 20221 net.cpp:294] The NetState phase (0) differed from the phase (1) specified by a rule in layer accuracy
I0927 21:05:31.368510 20221 net.cpp:51] Initializing net from parameters: 
name: "LeNet"
state {
  phase: TRAIN
  level: 0
  stage: ""
}
layer {
  name: "script"
  type: "Data"
  top: "data"
  top: "label"
  include {
    phase: TRAIN
  }
  transform_param {
    scale: 0.00390625
  }
  data_param {
    source: "dummy/data/digits/dummy_train_lmdb"
    batch_size: 64
    backend: LMDB
  }
}
layer {
  name: "conv1"
  type: "Convolution"
  bottom: "data"
  top: "conv1"
  param {
    lr_mult: 1
  }
  param {
    lr_mult: 2
  }
  convolution_param {
    num_output: 6
    kernel_size: 5
    stride: 1
    weight_filler {
      type: "xavier"
    }
    bias_filler {
      type: "constant"
    }
  }
}
layer {
  name: "pool1"
  type: "Pooling"
  bottom: "conv1"
  top: "pool1"
  pooling_param {
    pool: MAX
    kernel_size: 2
    stride: 2
  }
}
layer {
  name: "conv2"
  type: "Convolution"
  bottom: "pool1"
  top: "conv2"
  param {
    lr_mult: 1
  }
  param {
    lr_mult: 2
  }
  convolution_param {
    num_output: 16
    kernel_size: 5
    stride: 1
    weight_filler {
      type: "xavier"
    }
    bias_filler {
      type: "constant"
    }
  }
}
layer {
  name: "pool2"
  type: "Pooling"
  bottom: "conv2"
  top: "pool2"
  pooling_param {
    pool: MAX
    kernel_size: 2
    stride: 2
  }
}
layer {
  name: "conv3"
  type: "Convolution"
  bottom: "pool2"
  top: "conv3"
  param {
    lr_mult: 1
  }
  param {
    lr_mult: 2
  }
  convolution_param {
    num_output: 120
    kernel_size: 1
    stride: 1
    weight_filler {
      type: "xavier"
    }
    bias_filler {
      type: "constant"
    }
  }
}
layer {
  name: "ip1"
  type: "InnerProduct"
  bottom: "conv3"
  top: "ip1"
  param {
    lr_mult: 1
  }
  param {
    lr_mult: 2
  }
  inner_product_param {
    num_output: 84
    weight_filler {
      type: "xavier"
    }
    bias_filler {
      type: "constant"
    }
  }
}
layer {
  name: "relu1"
  type: "ReLU"
  bottom: "ip1"
  top: "ip1"
}
layer {
  name: "drop1"
  type: "Dropout"
  bottom: "ip1"
  top: "ip1"
  dropout_param {
    dropout_ratio: 0.5
  }
}
layer {
  name: "ip2"
  type: "InnerProduct"
  bottom: "ip1"
  top: "ip2"
  param {
    lr_mult: 1
  }
  param {
    lr_mult: 2
  }
  inner_product_param {
    num_output: 10
    weight_filler {
      type: "xavier"
    }
    bias_filler {
      type: "constant"
    }
  }
}
layer {
  name: "loss"
  type: "SoftmaxWithLoss"
  bottom: "ip2"
  bottom: "label"
  top: "loss"
}
I0927 21:05:31.368582 20221 layer_factory.hpp:77] Creating layer script
I0927 21:05:31.369586 20221 db_lmdb.cpp:35] Opened lmdb dummy/data/digits/dummy_train_lmdb
I0927 21:05:31.369666 20221 net.cpp:84] Creating Layer script
I0927 21:05:31.369726 20221 net.cpp:380] script -> data
I0927 21:05:31.369796 20221 net.cpp:380] script -> label
I0927 21:05:31.369976 20221 data_layer.cpp:45] output data size: 64,1,32,32
I0927 21:05:31.370504 20221 net.cpp:122] Setting up script
I0927 21:05:31.370611 20221 net.cpp:129] Top shape: 64 1 32 32 (65536)
I0927 21:05:31.370700 20221 net.cpp:129] Top shape: 64 (64)
I0927 21:05:31.370782 20221 net.cpp:137] Memory required for data: 262400
I0927 21:05:31.370870 20221 layer_factory.hpp:77] Creating layer conv1
I0927 21:05:31.370961 20221 net.cpp:84] Creating Layer conv1
I0927 21:05:31.371075 20221 net.cpp:406] conv1 <- data
I0927 21:05:31.371182 20221 net.cpp:380] conv1 -> conv1
I0927 21:05:31.371311 20221 net.cpp:122] Setting up conv1
I0927 21:05:31.371403 20221 net.cpp:129] Top shape: 64 6 28 28 (301056)
I0927 21:05:31.371484 20221 net.cpp:137] Memory required for data: 1466624
I0927 21:05:31.371577 20221 layer_factory.hpp:77] Creating layer pool1
I0927 21:05:31.371667 20221 net.cpp:84] Creating Layer pool1
I0927 21:05:31.371747 20221 net.cpp:406] pool1 <- conv1
I0927 21:05:31.371829 20221 net.cpp:380] pool1 -> pool1
I0927 21:05:31.371928 20221 net.cpp:122] Setting up pool1
I0927 21:05:31.372017 20221 net.cpp:129] Top shape: 64 6 14 14 (75264)
I0927 21:05:31.372095 20221 net.cpp:137] Memory required for data: 1767680
I0927 21:05:31.372171 20221 layer_factory.hpp:77] Creating layer conv2
I0927 21:05:31.372254 20221 net.cpp:84] Creating Layer conv2
I0927 21:05:31.372333 20221 net.cpp:406] conv2 <- pool1
I0927 21:05:31.372413 20221 net.cpp:380] conv2 -> conv2
I0927 21:05:31.372536 20221 net.cpp:122] Setting up conv2
I0927 21:05:31.372619 20221 net.cpp:129] Top shape: 64 16 10 10 (102400)
I0927 21:05:31.372700 20221 net.cpp:137] Memory required for data: 2177280
I0927 21:05:31.372784 20221 layer_factory.hpp:77] Creating layer pool2
I0927 21:05:31.372866 20221 net.cpp:84] Creating Layer pool2
I0927 21:05:31.372946 20221 net.cpp:406] pool2 <- conv2
I0927 21:05:31.373025 20221 net.cpp:380] pool2 -> pool2
I0927 21:05:31.373109 20221 net.cpp:122] Setting up pool2
I0927 21:05:31.373191 20221 net.cpp:129] Top shape: 64 16 5 5 (25600)
I0927 21:05:31.373267 20221 net.cpp:137] Memory required for data: 2279680
I0927 21:05:31.373343 20221 layer_factory.hpp:77] Creating layer conv3
I0927 21:05:31.373435 20221 net.cpp:84] Creating Layer conv3
I0927 21:05:31.373514 20221 net.cpp:406] conv3 <- pool2
I0927 21:05:31.373596 20221 net.cpp:380] conv3 -> conv3
I0927 21:05:31.373713 20221 net.cpp:122] Setting up conv3
I0927 21:05:31.373796 20221 net.cpp:129] Top shape: 64 120 5 5 (192000)
I0927 21:05:31.373874 20221 net.cpp:137] Memory required for data: 3047680
I0927 21:05:31.373958 20221 layer_factory.hpp:77] Creating layer ip1
I0927 21:05:31.374040 20221 net.cpp:84] Creating Layer ip1
I0927 21:05:31.374119 20221 net.cpp:406] ip1 <- conv3
I0927 21:05:31.374199 20221 net.cpp:380] ip1 -> ip1
I0927 21:05:31.376804 20221 net.cpp:122] Setting up ip1
I0927 21:05:31.376896 20221 net.cpp:129] Top shape: 64 84 (5376)
I0927 21:05:31.376972 20221 net.cpp:137] Memory required for data: 3069184
I0927 21:05:31.377054 20221 layer_factory.hpp:77] Creating layer relu1
I0927 21:05:31.377140 20221 net.cpp:84] Creating Layer relu1
I0927 21:05:31.377218 20221 net.cpp:406] relu1 <- ip1
I0927 21:05:31.377295 20221 net.cpp:367] relu1 -> ip1 (in-place)
I0927 21:05:31.377382 20221 net.cpp:122] Setting up relu1
I0927 21:05:31.377467 20221 net.cpp:129] Top shape: 64 84 (5376)
I0927 21:05:31.377545 20221 net.cpp:137] Memory required for data: 3090688
I0927 21:05:31.377627 20221 layer_factory.hpp:77] Creating layer drop1
I0927 21:05:31.377709 20221 net.cpp:84] Creating Layer drop1
I0927 21:05:31.377794 20221 net.cpp:406] drop1 <- ip1
I0927 21:05:31.377874 20221 net.cpp:367] drop1 -> ip1 (in-place)
I0927 21:05:31.377965 20221 net.cpp:122] Setting up drop1
I0927 21:05:31.378051 20221 net.cpp:129] Top shape: 64 84 (5376)
I0927 21:05:31.378132 20221 net.cpp:137] Memory required for data: 3112192
I0927 21:05:31.378214 20221 layer_factory.hpp:77] Creating layer ip2
I0927 21:05:31.378300 20221 net.cpp:84] Creating Layer ip2
I0927 21:05:31.378397 20221 net.cpp:406] ip2 <- ip1
I0927 21:05:31.378482 20221 net.cpp:380] ip2 -> ip2
I0927 21:05:31.378589 20221 net.cpp:122] Setting up ip2
I0927 21:05:31.378677 20221 net.cpp:129] Top shape: 64 10 (640)
I0927 21:05:31.378758 20221 net.cpp:137] Memory required for data: 3114752
I0927 21:05:31.378851 20221 layer_factory.hpp:77] Creating layer loss
I0927 21:05:31.378933 20221 net.cpp:84] Creating Layer loss
I0927 21:05:31.379010 20221 net.cpp:406] loss <- ip2
I0927 21:05:31.379099 20221 net.cpp:406] loss <- label
I0927 21:05:31.379214 20221 net.cpp:380] loss -> loss
I0927 21:05:31.379319 20221 layer_factory.hpp:77] Creating layer loss
…
I0927 21:05:31.381049 20221 solver.cpp:172] Creating test net (#0) specified by net file: dummy/jackson/models/config4/lenet_train_val.prototxt
I0927 21:05:31.381161 20221 net.cpp:294] The NetState phase (1) differed from the phase (0) specified by a rule in layer script
I0927 21:05:31.381381 20221 net.cpp:51] Initializing net from parameters: 
name: "LeNet"
state {
  phase: TEST
}
layer {
  name: "mnist"
  type: "Data"
  top: "data"
  top: "label"
  include {
    phase: TEST
  }
  transform_param {
    scale: 0.00390625
  }
  data_param {
    source: "dummy/data/digits/dummy_val_lmdb"
    batch_size: 64
    backend: LMDB
  }
}
layer {
  name: "conv1"
  type: "Convolution"
  bottom: "data"
  top: "conv1"
  param {
    lr_mult: 1
  }
  param {
    lr_mult: 2
  }
  convolution_param {
    num_output: 6
    kernel_size: 5
    stride: 1
    weight_filler {
      type: "xavier"
    }
    bias_filler {
      type: "constant"
    }
  }
}
layer {
  name: "pool1"
  type: "Pooling"
  bottom: "conv1"
  top: "pool1"
  pooling_param {
    pool: MAX
    kernel_size: 2
    stride: 2
  }
}
layer {
  name: "conv2"
  type: "Convolution"
  bottom: "pool1"
  top: "conv2"
  param {
    lr_mult: 1
  }
  param {
    lr_mult: 2
  }
  convolution_param {
    num_output: 16
    kernel_size: 5
    stride: 1
    weight_filler {
      type: "xavier"
    }
    bias_filler {
      type: "constant"
    }
  }
}
layer {
  name: "pool2"
  type: "Pooling"
  bottom: "conv2"
  top: "pool2"
  pooling_param {
    pool: MAX
    kernel_size: 2
    stride: 2
  }
}
layer {
  name: "conv3"
  type: "Convolution"
  bottom: "pool2"
  top: "conv3"
  param {
    lr_mult: 1
  }
  param {
    lr_mult: 2
  }
  convolution_param {
    num_output: 120
    kernel_size: 1
    stride: 1
    weight_filler {
      type: "xavier"
    }
    bias_filler {
      type: "constant"
    }
  }
}
layer {
  name: "ip1"
  type: "InnerProduct"
  bottom: "conv3"
  top: "ip1"
  param {
    lr_mult: 1
  }
  param {
    lr_mult: 2
  }
  inner_product_param {
    num_output: 84
    weight_filler {
      type: "xavier"
    }
    bias_filler {
      type: "constant"
    }
  }
}
layer {
  name: "relu1"
  type: "ReLU"
  bottom: "ip1"
  top: "ip1"
}
layer {
  name: "drop1"
  type: "Dropout"
  bottom: "ip1"
  top: "ip1"
  dropout_param {
    dropout_ratio: 0.5
  }
}
layer {
  name: "ip2"
  type: "InnerProduct"
  bottom: "ip1"
  top: "ip2"
  param {
    lr_mult: 1
  }
  param {
    lr_mult: 2
  }
  inner_product_param {
    num_output: 10
    weight_filler {
      type: "xavier"
    }
    bias_filler {
      type: "constant"
    }
  }
}
layer {
  name: "accuracy"
  type: "Accuracy"
  bottom: "ip2"
  bottom: "label"
  top: "accuracy"
  include {
    phase: TEST
  }
}
layer {
  name: "loss"
  type: "SoftmaxWithLoss"
  bottom: "ip2"
  bottom: "label"
  top: "loss"
}
I0927 21:05:31.386307 20221 layer_factory.hpp:77] Creating layer mnist
I0927 21:05:31.386534 20221 db_lmdb.cpp:35] Opened lmdb dummy/data/digits/dummy_val_lmdb
I0927 21:05:31.386641 20221 net.cpp:84] Creating Layer mnist
I0927 21:05:31.386732 20221 net.cpp:380] mnist -> data
I0927 21:05:31.386819 20221 net.cpp:380] mnist -> label
I0927 21:05:31.386966 20221 data_layer.cpp:45] output data size: 64,1,32,32
I0927 21:05:31.387095 20221 net.cpp:122] Setting up mnist
I0927 21:05:31.387186 20221 net.cpp:129] Top shape: 64 1 32 32 (65536)
I0927 21:05:31.387266 20221 net.cpp:129] Top shape: 64 (64)
I0927 21:05:31.387348 20221 net.cpp:137] Memory required for data: 262400
I0927 21:05:31.387426 20221 layer_factory.hpp:77] Creating layer label_mnist_1_split
I0927 21:05:31.387516 20221 net.cpp:84] Creating Layer label_mnist_1_split
I0927 21:05:31.387599 20221 net.cpp:406] label_mnist_1_split <- label
I0927 21:05:31.387681 20221 net.cpp:380] label_mnist_1_split -> label_mnist_1_split_0
I0927 21:05:31.387771 20221 net.cpp:380] label_mnist_1_split -> label_mnist_1_split_1
I0927 21:05:31.387857 20221 net.cpp:122] Setting up label_mnist_1_split
I0927 21:05:31.387938 20221 net.cpp:129] Top shape: 64 (64)
I0927 21:05:31.388023 20221 net.cpp:129] Top shape: 64 (64)
I0927 21:05:31.388100 20221 net.cpp:137] Memory required for data: 262912
I0927 21:05:31.388182 20221 layer_factory.hpp:77] Creating layer conv1
I0927 21:05:31.388270 20221 net.cpp:84] Creating Layer conv1
I0927 21:05:31.388355 20221 net.cpp:406] conv1 <- data
I0927 21:05:31.388438 20221 net.cpp:380] conv1 -> conv1
I0927 21:05:31.388547 20221 net.cpp:122] Setting up conv1
I0927 21:05:31.388638 20221 net.cpp:129] Top shape: 64 6 28 28 (301056)
I0927 21:05:31.388720 20221 net.cpp:137] Memory required for data: 1467136
I0927 21:05:31.388810 20221 layer_factory.hpp:77] Creating layer pool1
I0927 21:05:31.388893 20221 net.cpp:84] Creating Layer pool1
I0927 21:05:31.388972 20221 net.cpp:406] pool1 <- conv1
I0927 21:05:31.389056 20221 net.cpp:380] pool1 -> pool1
I0927 21:05:31.389150 20221 net.cpp:122] Setting up pool1
I0927 21:05:31.389237 20221 net.cpp:129] Top shape: 64 6 14 14 (75264)
I0927 21:05:31.389315 20221 net.cpp:137] Memory required for data: 1768192
I0927 21:05:31.389397 20221 layer_factory.hpp:77] Creating layer conv2
I0927 21:05:31.389492 20221 net.cpp:84] Creating Layer conv2
I0927 21:05:31.389574 20221 net.cpp:406] conv2 <- pool1
I0927 21:05:31.389655 20221 net.cpp:380] conv2 -> conv2
I0927 21:05:31.389780 20221 net.cpp:122] Setting up conv2
I0927 21:05:31.389868 20221 net.cpp:129] Top shape: 64 16 10 10 (102400)
I0927 21:05:31.389950 20221 net.cpp:137] Memory required for data: 2177792
I0927 21:05:31.390039 20221 layer_factory.hpp:77] Creating layer pool2
I0927 21:05:31.390125 20221 net.cpp:84] Creating Layer pool2
I0927 21:05:31.390202 20221 net.cpp:406] pool2 <- conv2
I0927 21:05:31.390287 20221 net.cpp:380] pool2 -> pool2
I0927 21:05:31.390373 20221 net.cpp:122] Setting up pool2
I0927 21:05:31.390455 20221 net.cpp:129] Top shape: 64 16 5 5 (25600)
I0927 21:05:31.390537 20221 net.cpp:137] Memory required for data: 2280192
I0927 21:05:31.390614 20221 layer_factory.hpp:77] Creating layer conv3
I0927 21:05:31.390702 20221 net.cpp:84] Creating Layer conv3
I0927 21:05:31.390782 20221 net.cpp:406] conv3 <- pool2
I0927 21:05:31.390868 20221 net.cpp:380] conv3 -> conv3
I0927 21:05:31.390995 20221 net.cpp:122] Setting up conv3
I0927 21:05:31.391085 20221 net.cpp:129] Top shape: 64 120 5 5 (192000)
I0927 21:05:31.391166 20221 net.cpp:137] Memory required for data: 3048192
I0927 21:05:31.391257 20221 layer_factory.hpp:77] Creating layer ip1
I0927 21:05:31.391341 20221 net.cpp:84] Creating Layer ip1
I0927 21:05:31.391420 20221 net.cpp:406] ip1 <- conv3
I0927 21:05:31.391507 20221 net.cpp:380] ip1 -> ip1
I0927 21:05:31.394117 20221 net.cpp:122] Setting up ip1
I0927 21:05:31.394212 20221 net.cpp:129] Top shape: 64 84 (5376)
I0927 21:05:31.394289 20221 net.cpp:137] Memory required for data: 3069696
I0927 21:05:31.394402 20221 layer_factory.hpp:77] Creating layer relu1
I0927 21:05:31.394506 20221 net.cpp:84] Creating Layer relu1
I0927 21:05:31.394587 20221 net.cpp:406] relu1 <- ip1
I0927 21:05:31.394667 20221 net.cpp:367] relu1 -> ip1 (in-place)
I0927 21:05:31.394754 20221 net.cpp:122] Setting up relu1
I0927 21:05:31.394840 20221 net.cpp:129] Top shape: 64 84 (5376)
I0927 21:05:31.394922 20221 net.cpp:137] Memory required for data: 3091200
I0927 21:05:31.394999 20221 layer_factory.hpp:77] Creating layer drop1
I0927 21:05:31.395084 20221 net.cpp:84] Creating Layer drop1
I0927 21:05:31.395162 20221 net.cpp:406] drop1 <- ip1
I0927 21:05:31.395243 20221 net.cpp:367] drop1 -> ip1 (in-place)
I0927 21:05:31.395326 20221 net.cpp:122] Setting up drop1
I0927 21:05:31.395407 20221 net.cpp:129] Top shape: 64 84 (5376)
I0927 21:05:31.395489 20221 net.cpp:137] Memory required for data: 3112704
I0927 21:05:31.395571 20221 layer_factory.hpp:77] Creating layer ip2
I0927 21:05:31.395660 20221 net.cpp:84] Creating Layer ip2
I0927 21:05:31.395741 20221 net.cpp:406] ip2 <- ip1
I0927 21:05:31.395823 20221 net.cpp:380] ip2 -> ip2
I0927 21:05:31.395929 20221 net.cpp:122] Setting up ip2
I0927 21:05:31.396023 20221 net.cpp:129] Top shape: 64 10 (640)
I0927 21:05:31.396101 20221 net.cpp:137] Memory required for data: 3115264
I0927 21:05:31.396188 20221 layer_factory.hpp:77] Creating layer ip2_ip2_0_split
I0927 21:05:31.396276 20221 net.cpp:84] Creating Layer ip2_ip2_0_split
I0927 21:05:31.396356 20221 net.cpp:406] ip2_ip2_0_split <- ip2
I0927 21:05:31.396437 20221 net.cpp:380] ip2_ip2_0_split -> ip2_ip2_0_split_0
I0927 21:05:31.396531 20221 net.cpp:380] ip2_ip2_0_split -> ip2_ip2_0_split_1
I0927 21:05:31.396618 20221 net.cpp:122] Setting up ip2_ip2_0_split
I0927 21:05:31.396704 20221 net.cpp:129] Top shape: 64 10 (640)
I0927 21:05:31.396788 20221 net.cpp:129] Top shape: 64 10 (640)
I0927 21:05:31.396885 20221 net.cpp:137] Memory required for data: 3120384
I0927 21:05:31.396965 20221 layer_factory.hpp:77] Creating layer accuracy
I0927 21:05:31.397049 20221 net.cpp:84] Creating Layer accuracy
I0927 21:05:31.397133 20221 net.cpp:406] accuracy <- ip2_ip2_0_split_0
I0927 21:05:31.397213 20221 net.cpp:406] accuracy <- label_mnist_1_split_0
I0927 21:05:31.397303 20221 net.cpp:380] accuracy -> accuracy
…
